water/1e2705m7/checkpoints/epoch=4999-step=4999.ckpt (torch, 11433 bytes, 16 tensors)

layers.0.weight f4 [16, 8]
00000000: c682 55bf a64e a83d 7369 84be fd1c e0bd
00000010: 7a28 353e 4b1b 613f 49e0 a3be 7bca 493f
00000020: 8a39 c9bd 287a 94be 0121 8bbe bb99 3c3e
00000030: 2733 1a3f 021d 493f 1363 46bf efb2 21bf
00000040: d067 44be 99c2 98be 4fe8 6f3e 75d3 103e
00000050: 83d1 eb3d 6ac8 0dbc 999b 473d 2114 0b3e
00000060: dc11 473d 80c2 143e 4bd5 353d 2761 edbd
00000070: 1cce 5b3d 98b7 1a3e 8dd8 2c3e adec b5bc
00000080: f9e6 263f 7292 583e 8793 38bf 5f67 353f
00000090: 8ea5 58bf fda9 65be 0d12 c23e 2669 123e
000000a0: 8bd4 d5be 7d5a dbbd 48f1 ebbd 4055 0dbe
000000b0: 04aa e2bc 73b2 6ebe f7c1 233f dd80 aa3f
000000c0: 6196 fbbe a0ed 113e eca8 f0bd b084 02be
000000d0: e01e cf3e 0c77 dabc f30c 6d3e f500 463f
000000e0: 7c40 b13c 9408 9dbd 5b72 9d3d c71f 9dbd
000000f0: 11f4 bc3c d0d4 8c3c 2685 8ebc 035d 1e3c
00000100: c7a8 14bf 52ad 0cbe 650d 7b3e 6396 8a3e
00000110: 83ca 06bc 5ae0 ef3d b9a3 dcbd daea b13f
00000120: b493 9d3e d2fc d03e 02b1 02bf ab04 4f3d
00000130: e495 3b3f 7ef2 7b3d 6265 1ebe c12b 12bd
00000140: c920 033f 61e6 b2be 3a58 3abc 41a3 b3bd
00000150: 3fd1 8abd f50a 2ebf 0bdf e53e af40 72bd
00000160: efe5 8ebb 6126 8cbc 8604 8b3c dbeb 8bbc
00000170: e60a a83a 29ba 2937 19e7 2ab7 f93f 85bb
00000180: 4d70 6fbf b59c 26bd ac69 e8bd 8f10 74be
00000190: f017 243f b032 0abf a8d5 3d3f d585 c0bd
000001a0: c02f 91bb d9df 8e3e d27d fd3d 9181 5dbe
000001b0: 5253 953c a1ff 513f 1fd6 adbe e986 0fbd
000001c0: 4082 b6bd ff67 0dbe e490 55be d554 b3be
000001d0: c066 f9bd 0e97 26be f7fd 65be 7b36 753d
000001e0: e96f 823d c66c 193f f1d5 15bf 15ff 013f
000001f0: 7548 553f da14 d7bd cc7f 62bd f1b0 a23e
-0.8340267 0.08218126 -0.258617 -0.10943029 0.17691222 0.8793227 -0.32007053 0.78824586
-0.09825428 -0.28999448 -0.27173617 0.18418019 0.602343 0.7855989 -0.77494925 -0.63163656
-0.19180226 -0.29835966 0.23428462 0.14143164 0.115145706 -0.0086537395 0.048732374 0.13581897
0.048601016 0.14527321 0.044392865 -0.11590796 0.053663358 0.15109098 0.16879483 -0.022207582
0.65196186 0.21149614 -0.7210011 0.70860857 -0.84627616 -0.22428127 0.37904397 0.14297923
-0.4176372 -0.10710619 -0.1152063 -0.13802052 -0.02766896 -0.2331026 0.6396784 1.3320576
-0.49138168 0.14250803 -0.11750969 -0.12745929 0.40453243 -0.026668094 0.23149471 0.7734521
0.021637194 -0.07667652 0.07687827 -0.07672077 0.023065599 0.01719132 -0.017397474 0.00966573
-0.58070034 -0.13737991 0.24516828 0.2706786 -0.0082269935 0.117127135 -0.10773415 1.3899796
0.3077675 0.40817887 -0.5105134 0.05054156 0.7327559 0.061510555 -0.15468362 -0.03568626
0.512219 -0.3494139 -0.011373574 -0.087713726 -0.06778192 -0.6798547 0.4489673 -0.05914372
-0.0043609063 -0.017108144 0.01696993 -0.017080238 0.0012820631 1.0116529e-05 -1.0186596e-05 -0.004066464
-0.9353073 -0.04067679 -0.1134828 -0.23834442 0.64099026 -0.53983593 0.7415414 -0.094005264
-0.004430741 0.27905157 0.12377514 -0.21631457 0.018228207 0.82030684 -0.33952424 -0.03504077
-0.08911562 -0.13809203 -0.20856053 -0.3502566 -0.12177801 -0.1626856 -0.22460161 0.05986641
0.063690014 0.599316 -0.58529574 0.5077985 0.83313686 -0.10502024 -0.055297658 0.3177562

layers.0.bias f4 [16]
00000000: 9b5b 9c3e a208 19be 8ddd 63bd 1079 84be
00000010: 424a 313f a84d 493e 793a c0be d868 9dbd
00000020: a862 813e 7d19 afbc fd36 093e 7adf 8bbc
00000030: 5aa8 70bc 93de 493e 5a56 c6bd ea7b e03e
0.3053864 -0.149447 -0.05563121 -0.25873613 0.69253933 0.1965853 -0.3754461 -0.07686013
0.2527058 -0.021374458 0.13399883 -0.017074335 -0.014688576 0.19713812 -0.09684439 0.4384454

layers.2.weight f4 [16, 16]
00000000: 12fe 7d00 2e2c 4d80 b6c7 3180 baea 6c01
00000010: 0b65 2880 f12c 4180 f5fa 3880 d86f 4580
00000020: 3659 3600 7150 3629 3d4a 5380 93d2 0180
00000030: 4ebc 6280 6418 a001 8f10 5c00 53de 02b3
00000040: 79b9 52bf 9126 9f3e d221 5dba 4728 9abb
00000050: 5020 02bd 3f33 cbbe 6a66 0bbf 1d01 8d3b
00000060: 9157 753e 3480 0b3e 0a42 793e e725 9839
00000070: e1e3 c53e 8532 bd3e af50 d4ba bd78 7e3d
00000080: eed8 9608 8872 e7bb 061b 6600 4c2d 1900
00000090: 6f81 42b6 4dee 12b1 0638 0e08 31b2 1d80
000000a0: 7170 ddb2 2440 969e d073 2fb5 7ace 0780
000000b0: 24ce 3b98 1a60 09b9 45a0 3780 8365 5db9
000000c0: 9fe6 fd3c 2bc5 313d 12b5 2d3d 7081 8f3d
000000d0: b006 e8bb b528 9fbc 5a78 1fbd 64bd 7281
000000e0: 32e2 38be 6cb6 4dbd 2ffb 6a3d 1009 7e81
000000f0: 53e3 533e 83a8 f73b 3cf6 b2b3 bdf9 4fbe
00000100: b519 0c3e 46f0 65be b312 59bc b6cd 8dbd
00000110: 3819 ae3e 4887 a0bd 6a23 b03c 412c c7bb
00000120: 5595 e6bf b580 0a3e 5eca d4be ace0 87bb
00000130: b789 303f ef9f e6bd bab1 533d e5ed 063f
00000140: e926 853c aebf ec3d cf29 a0bb 2007 55bd
00000150: 7a05 4abd 32de c9be d0a9 f4bc c095 46b0
00000160: c434 873e 1467 ffbd 5630 843e 0caf 5934
00000170: 5202 003f b5a3 e7bd 4ea5 cb3c cd15 043e
00000180: d228 bd3e 9757 ac3e 359c 3bbb e71f 1bbe
00000190: 5665 863c 1dad 01c0 b37a 62bf 1165 c83a
000001a0: 0289 a2bd c8a0 043f 2a77 d03f 452a 0f3b
000001b0: 6f8e b9be 584d 92bc 60fc 2dbc c4d3 ba3e
000001c0: 220c c43e cf42 8bbe e1ee d9b2 56fd 18bb
000001d0: 025b 2b3f 31ac 683f 9ba4 7f3e 0f2e 56b8
000001e0: 0024 c9be 51e1 093d 9ead 8dbe f9a4 a6b7
000001f0: d516 9cbe 933d 853c 8212 67ba 5cab 643d
00000200: 450b 5dbf 2d28 b93e f131 d73a 352c 093c
00000210: f4b1 b63e 9128 b0be c3fa 49bf d89d a93b
00000220: 3d81 403f cb8e 61be 565e 6e3e a473 063c
00000230: 1c60 f7be f9ca 663e c5ab 5d3c d3d5 533d
00000240: 4169 f03d 87d2 0b3f 0b6a a7bd d9a0 953d
00000250: 7979 74be c3c0 90bf 3a7d bfbf 18c6 3c39
00000260: 6d9f bb3e fff7 e43d 9412 24be bee7 8939
00000270: 4ad1 443e db96 d03e ee14 b3bc ef5c 1bbd
00000280: c94a edbd defa 8abc 4d30 ddbc 0236 35be
00000290: a42a eb3e 36c4 1ac0 6c1c 4abe a569 973b
000002a0: 5c0c 5ebe df94 5dbe 52bf 70bd 1173 353c
000002b0: eee7 3a3f 067f bf3e cb85 2abd 0b19 74be
000002c0: ab7c 01bf 55b9 cd3e 4864 85bc 0ad1 13be
000002d0: 61d7 fd3d 5640 45bf 91b7 21bf 1add 943a
000002e0: 6b37 183f cdad ac3d 7fe3 723e 4ae7 563a
000002f0: 7ae7 22bf e9f9 03be 4a46 72bc a381 de3e
00000300: 61e2 85bf 6955 f23e 5aca c6b7 72f5 623a
00000310: 9466 9c3e 04da 2cbf 65b5 05bf 12da ed3b
00000320: 93fc 503f 4b8f 30bf 5551 e43e aa66 853b
00000330: 7b83 0bbf 79ec 4a3e 17cc 633d 9da8 d93e
00000340: fa1c f33e 28fd 343d bc37 f3bd d1fe 42bd
00000350: 91ec d43e f3ed de3e 3661 983e f083 74b9
00000360: 94c8 0abf 9526 6c3e 0e58 cebd 3d88 bab8
00000370: 4dc9 ffbd 47b5 62bd 81ee 333d 7ad3 893e
00000380: a1b1 a63f b57b 61bf 66d1 3c80 fa3e b801
00000390: f14e b83d 2d9f d7be 9ceb 9fbd 3b4a debb
000003a0: 1880 f7be 3168 febe 91a4 d93e 6561 8cb3
000003b0: 208f 713f 57fd febf 0948 4980 b7e5 753e
000003c0: 64ae d8b4 514e 91b3 4086 3280 f4eb 1c00
000003d0: b06e 07b9 c416 7d88 d6bc 4085 f4a6 1b00
000003e0: ff57 e711 4f07 4eb5 8c82 a285 47cb 8d80
000003f0: 244e be83 32b2 a4ad b3ec 2280 937e 9db9
1.157058e-38 -7.087182e-39 -4.571582e-39 4.3514762e-38 -3.709667e-39 -5.985429e-39 -5.232814e-39 -6.376771e-39
4.99112e-39 4.048189e-14 -7.648978e-39 -1.67375e-40 -9.06743e-39 5.8809716e-38 8.454806e-39 -3.0470186e-08
-0.8231426 0.3108411 -0.00084355206 -0.0047045085 -0.031769097 -0.39687535 -0.54453146 0.004303111
0.23959185 0.13623124 0.24341598 0.0002901994 0.3865042 0.36952606 -0.0016198362 0.062126864
9.0787965e-34 -0.0070632137 9.376915e-39 2.312137e-39 -2.8983593e-06 -2.1381255e-09 4.2797426e-34 -2.727152e-39
-2.5778919e-08 -1.5908396e-20 -6.536111e-07 -7.16918e-40 -2.4273258e-24 -0.00013101139 -5.108446e-39 -0.00021114018
0.030993758 0.043400925 0.04240901 0.0700711 -0.0070808753 -0.01942859 -0.038933136 -4.458426e-38
-0.18055037 -0.0502228 0.057368454 -4.6658934e-38 0.20692186 0.00755793 -8.333561e-08 -0.20310111
0.13681681 -0.22454938 -0.013249087 -0.06924002 0.34003615 -0.07838303 0.021501262 -0.0060782735
-1.8014323 0.1352566 -0.41560644 -0.004146656 0.68960136 -0.11260974 0.051683165 0.5270675
0.016253905 0.115599975 -0.0048877965 -0.052008748 -0.04932163 -0.39427334 -0.02986613 -7.224479e-10
0.26407444 -0.124708325 0.25818127 2.0273382e-07 0.5000354 -0.113105215 0.024859097 0.12898941
0.36945206 0.33660576 -0.0028627042 -0.15148889 0.016405743 -2.026191 -0.88468474 0.0015288909
-0.079362884 0.5180783 1.6286366 0.0021845263 -0.3624148 -0.017859146 -0.010619253 0.3648969
0.38290507 -0.27199408 -2.5370754e-08 -0.002334436 0.6693574 0.90887743 0.24965136 -5.106447e-05
-0.39285278 0.033662144 -0.27671522 -1.9865563e-05 -0.3048617 0.016264712 -0.00088147086 0.055827484
-0.8634532 0.36163464 0.0016418082 0.008372356 0.35682642 -0.3440595 -0.78898257 0.005176287
0.751972 -0.22027127 0.23278174 0.008206282 -0.48315513 0.22538365 0.013529723 0.05171759
0.117388256 0.54618114 -0.08174523 0.0730607 -0.23874463 -1.1308826 -1.4960091 0.00018002873
0.3664507 0.11180114 -0.16022712 0.00026303338 0.19220462 0.40740094 -0.021860566 -0.037930425
-0.1158653 -0.016965326 -0.02700057 -0.17696384 0.4593097 -2.4182258 -0.19737405 0.004620748
-0.21684402 -0.21638821 -0.058776207 0.011074797 0.73010147 0.374016 -0.0416315 -0.23837678
-0.50580853 0.4018046 -0.01628317 -0.14435211 0.12394596 -0.77051294 -0.63170725 0.0011357397
0.5945956 0.08431587 0.23719595 0.0008197917 -0.63634455 -0.12888302 -0.014787266 0.4345828
-1.045971 0.47330788 -2.3697667e-05 0.000865779 0.3054701 -0.67520165 -0.5222991 0.007258662
0.816354 -0.6896865 0.445933 0.0040710764 -0.544975 0.1981677 0.055614557 0.42511454
0.47483045 0.04418674 -0.11875865 -0.047606293 0.41586736 0.43540916 0.29761666 -0.00023318804
-0.5421231 0.23061593 -0.10075389 -8.8945475e-05 -0.12489567 -0.05534866 0.043928627 0.26919156
1.3022958 -0.88079387 -5.585248e-39 6.768129e-38 0.08999432 -0.4211363 -0.07808611 -0.0067837513
-0.48339915 -0.49688867 0.42508367 -6.536974e-08 0.94359016 -1.9921063 -6.729833e-39 0.2401341
-4.036002e-07 -6.766334e-08 -4.639935e-39 2.656038e-39 -0.00012915838 -7.616118e-34 -9.06248e-36 2.53945e-39
3.6499606e-28 -7.6751616e-07 -1.5282362e-35 -1.3021727e-38 -1.11851365e-36 -1.8723776e-11 -3.207319e-39 -0.0003003968

layers.2.bias f4 [16]
00000000: ce9e 5cb1 1784 8d3e f344 3dba 76c5 8fbd
00000010: 8594 f53e a9f9 ff3d 8760 ecbd c4a6 c43e
00000020: 0f36 e33d bb75 903d 5547 943e 3a5b cb3e
00000030: 7493 d03c 889a 293d 3742 2a3e 7a8f 6cb4
-3.2104484e-09 0.2763984 -0.0007220052 -0.070200846 0.47964874 0.12498791 -0.11541849 0.38408482
0.11094295 0.07053705 0.28960672 0.39718038 0.025460936 0.041407138 0.16626821 -2.2031409e-07

layers.4.weight f4 [1, 16]
00000000: d048 2480 7794 cbbe 2dfc d336 cbe6 143e
00000010: fd4a 7e3f e4ed 41be aa88 42bf 9d71 bd3e
00000020: 0b39 51bf d06c 08bf e4a4 96bf c484 2bbf
00000030: a004 6abf 30a1 e03e 5b3e 16c0 772e 3fbc
-3.332198e-39 -0.39761707 6.317647e-06 0.14541166 0.99333173 -0.18938404 -0.7598978 0.37000743
-0.81727666 -0.53291035 -1.1769071 -0.6699946 -0.9141331 0.43872976 -2.3475559 -0.011668793

cel.weight f4 [2]
00000000: 0000 803f 5c8f e23f
1.0 1.77

exp_avg f4 [16, 8]
00000000: 6a3e b3ba 40b0 a73a 75eb a7ba f56f a73a
00000010: e4c2 bf38 89ce abb8 f188 b738 7e98 21bb
00000020: 2827 503a ca0c b2ba 4f50 b13a af6d b1ba
00000030: 3df8 9eba ca75 22b9 6192 2239 00f7 ee3a
00000040: 9d17 01b6 ec88 48b6 ec77 1d36 8e1e be35
00000050: e6ad 9a35 e39a bab3 ea5a 0335 eaac b635
00000060: 3ee0 0235 5577 c335 7bec ee34 7ef4 9bb5
00000070: 8445 1035 0e33 cb35 4f02 e335 a82f 6fb4
00000080: 8beb ef39 fd97 0ab9 3d40 0539 8261 05b9
00000090: 659b 163a 608f 46ba 3df7 463a 4ebe e039
000000a0: 3ff6 ff3a 0ece 743a 3d63 75ba 52b9 743a
000000b0: 9052 953a 0a8d a43a 9d04 a4ba d849 cc3a
000000c0: 020b a238 07f8 773a 40e7 77ba d942 773a
000000d0: ab98 4a3a 94cb 093a 1f42 09ba 41c8 9f39
000000e0: 65ae 6b34 4edc 51b5 b369 5235 55fb 51b5
000000f0: bcb1 7c34 3811 3b34 794f 3db4 a497 d233
00000100: 2e18 833a 0c31 1d3a b5e8 1cba e542 1e3a
00000110: 811c 96ba f582 dcb5 2826 e935 11f1 a638
00000120: 870b 3538 f000 1139 a213 12b9 ec40 0d39
00000130: 4312 64ba 16c5 96ba d3a5 963a 7022 5939
00000140: 6d25 bb39 17b3 323a 37a5 33ba b762 333a
00000150: 515d 4aba 5131 9339 3267 94b9 17d1 373a
00000160: c4f7 3fb3 805a 3bb4 01d7 3934 450c 3bb4
00000170: 286e 6332 e65c f02e ac02 f2ae e908 33b3
00000180: 7c1b dfbb 6ce6 d83b 59f3 d8bb d4d5 d83b
00000190: 94dd a1ba 31e0 9b3b 46cf 9bbb b8d4 38bb
000001a0: 8d96 5f3a 0c33 9b3a e2ab 9aba d58c 9a3a
000001b0: 5fb6 693b 5c2f 10ba 0372 113a 2a67 183b
000001c0: fa7f 6fb5 6381 b9b5 a215 0cb6 0c42 6bb6
000001d0: 78b8 a3b5 e3bf dab5 5900 17b6 72e2 2035
000001e0: 1c57 ee39 c8ef b339 f7dc b3b9 f274 b339
000001f0: 53e3 65b9 6511 09ba cea5 083a 31c8 9c39
-0.0013675217 0.0012793615 -0.001281126 0.0012774455 9.143891e-05 -8.1923856e-05 8.751627e-05 -0.0024657543
0.0007940405 -0.0013584134 0.0013527962 -0.0013536717 -0.0012128424 -0.00015493404 0.00015504054 0.0018231571
-1.9236243e-06 -2.9882021e-06 2.3464627e-06 1.4164996e-06 1.1524505e-06 -8.689474e-08 4.89336e-07 1.3610381e-06
4.875509e-07 1.4563362e-06 4.4503017e-07 -1.1619557e-06 5.374534e-07 1.5139537e-06 1.691349e-06 -2.2275947e-07
0.00045761126 -0.00013217326 0.00012707799 -0.00012720193 0.00057452015 -0.0007574465 0.0007589942 0.00042866397
0.0019528343 0.0009338566 -0.0009360796 0.0009335476 0.0011392403 0.001255424 -0.0012513582 0.0015585972
7.726812e-05 0.0009459261 -0.0009456761 0.00094322633 0.0007728438 0.0005256471 -0.0005235988 0.00030476044
2.1949525e-07 -7.817915e-07 7.838491e-07 -7.8224303e-07 2.3533988e-07 1.7421996e-07 -1.7630909e-07 9.80647e-08
0.0010001713 0.0005996383 -0.0005985604 0.000603719 -0.0011452587 -1.6429391e-06 1.7370958e-06 7.960399e-05
4.31645e-05 0.00013828627 -0.00013930959 0.00013470993 -0.0008700231 -0.0011502828 0.0011493511 0.00020707562
0.00035695304 0.00068168476 -0.0006852927 0.0006843018 -0.00077195937 0.00028074768 -0.00028305646 0.0007012053
-4.4695994e-08 -1.7448656e-07 1.7307686e-07 -1.7420196e-07 1.3238186e-08 1.09304385e-10 -1.10053605e-10 -4.168479e-08
-0.0068086963 0.0066192653 -0.006620806 0.006617287 -0.0012349361 0.0047569503 -0.0047549335 -0.0028202962
0.0008529209 0.0011840775 -0.0011800493 0.0011791239 0.003566168 -0.0005500221 0.00055483 0.002325485
-8.922067e-07 -1.3821231e-06 -2.0874218e-06 -3.5056173e-06 -1.2198134e-06 -1.6298112e-06 -2.2500956e-06 5.9934166e-07
0.000454598 0.00034320191 -0.00034306172 0.00034228672 -0.00021923827 -0.0005228727 0.0005212695 0.00029903793

exp_avg_sq f4 [16, 8]
00000000: 8cd1 d13b 513f 823c 563f 823c 4f3f 823c
00000010: 62b9 d73b fecc b73b 08cd b73b 7fe8 d33b
00000020: 924c 8d3b 0769 273c 0a69 273c 0669 273c
00000030: 9796 a73a 52c8 453b 4fc8 453b bfe2 9a3b
00000040: 9488 fa32 5501 df33 b4ff de33 8708 df33
00000050: 2be4 b134 9ec3 7b32 02c8 7b32 b82f 7233
00000060: a9d1 d432 314a 2d33 893f 2d33 083c 2d33
00000070: b4b3 e333 d227 8333 9f28 8333 c297 e132
00000080: 9c85 ed38 2182 3f39 1982 3f39 1e82 3f39
00000090: a75b a739 9c35 c538 c435 c538 45b6 0239
000000a0: 65e9 993c 3b28 ae3c 3c28 ae3c 3b28 ae3c
000000b0: e8d6 cf3a 5b43 663c 5243 663c 2678 b43c
000000c0: a8e6 543b 7947 573b 6f47 573b 6447 573b
000000d0: 2ee3 923a 5f29 7f3b 6129 7f3b 02ef 763b
000000e0: 3e42 ab30 c967 3d30 de64 3d30 0f66 3d30
000000f0: c9db 3030 fb74 c530 dd77 c530 2e63 a830
00000100: 3805 513c 5704 733c 5a04 733c 5904 733c
00000110: 44da 633a f39a e43b f29a e43b 6457 623c
00000120: cf01 e03a e4b0 b83b e2b0 b83b dfb0 b83b
00000130: c233 0f3a ed6a d23a f56a d23a 84dc dd3a
00000140: e1d2 023c 4cf7 873b 39f7 873b 3bf7 873b
00000150: 81f4 b53a 0047 533c 0047 533c cff9 df3b
00000160: 26cd ee2f 33d3 3730 bed4 3730 42d3 3730
00000170: 28ce 8f2f be82 5f2e 0ce1 5f2e 4adb eb2f
00000180: e6bb c73a 52cc 973a 55cc 973a 4dcc 973a
00000190: 5106 f139 af2b 523b a52b 523b 20a7 e03a
000001a0: 82fd 363b a138 363b ae38 363b a538 363b
000001b0: efb1 243b 0b32 9e3a 1632 9e3a b256 2a3b
000001c0: 89e7 3e34 36a0 ae34 7ea5 ae34 0e9d ae34
000001d0: 67b9 be33 5136 a133 0f3a a133 041c 4f34
000001e0: 3749 1f3a e3e7 033a e4e7 033a e0e7 033a
000001f0: aadc b538 57ef 0c3a 63ef 0c3a 03c5 283a
0.0064031538 0.015899332 0.015899342 0.015899329 0.0065833787 0.005609154 0.0056091584 0.0064669247
0.0043121064 0.010217912 0.010217914 0.010217911 0.0012785968 0.0030179215 0.0030179208 0.0047267373
2.9165939e-08 1.0384489e-07 1.0384193e-07 1.0385798e-07 3.3134833e-07 1.4654601e-08 1.4655599e-08 5.6388416e-08
2.477539e-08 4.0347178e-08 4.0337486e-08 4.03343e-08 1.0603199e-07 6.107406e-08 6.107552e-08 2.6262459e-08
0.00011325927 0.00018263656 0.00018263645 0.00018263652 0.00031921008 9.4036775e-05 9.403707e-05 0.00012465667
0.018788049 0.021259418 0.02125942 0.021259418 0.0015856894 0.014054145 0.014054136 0.022029947
0.0032486115 0.0032848998 0.0032848974 0.0032848949 0.0011206621 0.0038934571 0.0038934576 0.003767908
1.2460715e-09 6.8905287e-10 6.890114e-10 6.8902833e-10 6.434076e-10 1.4366884e-09 1.4367704e-09 1.2251797e-09
0.012757592 0.014832578 0.01483258 0.0148325795 0.0008691887 0.006976479 0.0069764787 0.013814781
0.0017090383 0.0056363214 0.0056363204 0.005636319 0.00054627296 0.0016053595 0.0016053604 0.0016926681
0.007984848 0.004149353 0.0041493443 0.004149345 0.0013882072 0.012895346 0.012895346 0.0068351994
4.3437715e-10 6.6875144e-10 6.6877337e-10 6.687523e-10 2.615803e-10 5.0820452e-11 5.090421e-11 4.2902065e-10
0.0015238493 0.0011581278 0.0011581281 0.0011581272 0.00045971808 0.0032069494 0.0032069471 0.0017139651
0.0027922099 0.002780475 0.002780478 0.002780476 0.002513047 0.0012069357 0.001206937 0.0025991616
1.7779361e-07 3.2526594e-07 3.2530437e-07 3.2524298e-07 8.881289e-08 7.507027e-08 7.5077075e-08 1.928857e-07
0.00060762785 0.0005031807 0.0005031808 0.00050318055 8.6718544e-05 0.00053762406 0.00053762476 0.00064380484

exp_avg f4 [16]
00000000: 3efb a73a a6dd b1ba 7c90 15b5 d210 2eb6
00000010: 858c 05b9 e599 753a 729c 763a fe5c 52b5
00000020: b836 1e3a 6c80 0c39 8ff7 333a bbfb 3ab4
00000030: 9de8 d83b 7c17 9b3a 7618 82b5 d317 b339
0.0012815965 -0.0013570085 -5.571708e-07 -2.5937811e-06 -0.00012736216 0.00093689404 0.00094074674 -7.836642e-07
0.00060353754 0.00013399281 0.0006865197 -1.7414179e-07 0.0066195265 0.001183256 -9.692874e-07 0.0003415929

exp_avg_sq f4 [16]
00000000: 563f 823c 0b69 273c 8603 df33 c33c 2d33
00000010: 1482 3f39 4328 ae3c 6047 573b 9e64 3d30
00000020: 5904 733c deb0 b83b 37f7 873b 43d3 3730
00000030: 4ecc 973a a638 363b f5a0 ae34 dee7 033a
0.015899342 0.010217915 1.03848876e-07 4.0334964e-08 0.00018263637 0.021259433 0.003284894 6.8900785e-10
0.0148325795 0.0056363186 0.0041493434 6.6875233e-10 0.0011581273 0.0027804761 3.2527137e-07 0.00050318043

exp_avg f4 [16, 16]
00000000: 4b00 0000 2d00 0080 1900 0080 5200 0080
00000010: 2200 0080 2300 0080 2c00 0080 2d00 0080
00000020: 2300 0000 c037 1021 3700 0080 0400 0080
00000030: 4100 0080 4200 0000 4000 0000 cf33 baaa
00000040: 1f5e 9a39 3678 68b9 d9a0 15b2 0c01 4fb3
00000050: 5794 48ba 0512 15ba 168c 8db6 b70e 4b33
00000060: dd88 db39 eb16 6537 e90b 05ba 6602 5131
00000070: 2845 8eb9 4a42 8638 c52d 8fb2 28bb e5b9
00000080: 16fa 8680 ebc8 99b3 4100 0000 0f00 0000
00000090: df14 0bae 33b1 e0a8 61b6 0c00 0f00 0080
000000a0: 13cb a2aa 32d5 9d96 6f6d fcac 0e00 0080
000000b0: 7fe9 8f90 0cef b9b0 2c00 0080 f828 15b1
000000c0: 791b a834 3839 e934 6493 e534 687a 3d35
000000d0: a854 98b3 c733 51b4 2cb2 d1b4 2100 0000
000000e0: 58fa f2b5 c331 07b5 b354 1a35 1000 0080
000000f0: 5424 0b36 93d9 a233 1c56 7cab a279 08b6
00000100: 693f 0138 1f75 653a d808 0fb4 7930 3ab5
00000110: 8bf4 2dba 9088 213a bb76 8839 debf 8cb3
00000120: c1ea 3d39 0b35 b639 a0b7 363a 6d62 36b3
00000130: 6928 df39 3217 4139 e235 0b35 9841 093a
00000140: bfb2 4fb7 e01e 2eb9 f79a 52b3 c4cf 0bb5
00000150: 8a9e 47b9 afdd 76b9 aa81 43b8 9deb 09a8
00000160: 9980 edb7 7f66 a5b6 9b6c 91b9 9728 1f2c
00000170: 528a 02b9 5f3d 4db8 27fa 8534 93cf beb8
00000180: 2173 d9b9 e328 69ba 3de3 f8b2 9929 ccb5
00000190: 6a12 fc39 52f5 3638 c2a8 05b9 a6ec 9432
000001a0: b243 40b9 e4ce 0eba 0271 1539 b081 c132
000001b0: 99a9 f3b8 fecf 6eb9 3b41 e6b3 ea74 53ba
000001c0: f434 c133 9ef7 a939 2689 9caa 7844 cdb2
000001d0: b078 43b9 7c03 3239 b532 0339 93b6 31b0
000001e0: e7a1 c538 04ae ed38 6045 2c39 2c84 69af
000001f0: 164a 4639 a498 8f38 3909 1cb2 45ef 7f39
00000200: 0364 ea36 cd14 42ba b851 8f32 d1b4 b633
00000210: 213a 923a ec4d d539 075e dfb7 6a18 7233
00000220: 4dfb edb8 7e33 41b9 39bf 353a c885 b333
00000230: 393d 5f39 b7f3 29b9 b5a5 1334 58bf 0eb9
00000240: 8e4f bdb8 001f 05ba 78f7 5cb5 77bb 4435
00000250: e9e1 43b7 9a04 8bb8 7178 f537 65dc 1631
00000260: 0687 b6b7 36d5 58b8 14fd 1736 91c0 3d31
00000270: fadd 6338 4462 30b9 1352 6db4 8acc b3b8
00000280: a3c8 55ba 9ab7 40ba 5e90 91b4 dcf6 edb5
00000290: 7fec c8ba 2076 c6b8 fe14 7837 1333 5933
000002a0: e57a b1b9 f578 fc38 4d22 0537 a819 f333
000002b0: e6b0 3439 641b 3cba a6a6 e0b4 2382 efb9
000002c0: 6451 fe35 7413 1aba 2864 31b4 dd91 c2b5
000002d0: a1c3 643a d027 c539 e549 9e38 1110 6132
000002e0: 7706 40b8 bc90 df38 c0b6 a439 8fe2 1132
000002f0: d1b5 3839 57f0 02b9 396f 1fb4 fdfe 6039
00000300: 0233 eb36 c1e5 58ba 9a2d 89af dcdf 1532
00000310: bb6e a33a 990f ed39 8e94 dbb7 5fe5 a733
00000320: d958 05b9 66bb 5cb9 3bc5 4b3a c579 3333
00000330: bba5 7939 22a8 3eb9 73f1 1535 3bca 1bb9
00000340: e22f ac34 8476 cb39 22cf 9fb5 86de ffb4
00000350: 65c9 6bb9 e752 4c39 9a95 1b39 5bc3 3fb1
00000360: 92bd e838 90ec 0e39 2da3 4e39 13ec 80b0
00000370: 7d9a 6d39 26b3 a838 cb84 ec34 c1ce 9839
00000380: 732a f238 c5e1 f239 2c00 0080 7600 0080
00000390: d622 293b dec1 4bba 2ea1 1eba ebaf 99b3
000003a0: 8a5f 89b9 780d bc3a 2ced abba d971 4dab
000003b0: 38ee 95ba c58c 1738 3600 0080 8596 0c3b
000003c0: 605e 9fac f057 58ab 1900 0080 0f00 0000
000003d0: a068 bdb0 31bc 1301 2528 0680 0f00 0000
000003e0: 3fa3 c909 1cde 18ad 2961 0400 5500 0080
000003f0: 9971 0700 59cf 87a5 1800 0080 c092 5ab1
1.05e-43 -6.3e-44 -3.5e-44 -1.15e-43 -4.8e-44 -4.9e-44 -6.2e-44 -6.3e-44
4.9e-44 4.886288e-19 -7.7e-44 -6e-45 -9.1e-44 9.2e-44 9e-44 -3.3076187e-13
0.00029443295 -0.00022170026 -8.709514e-09 -4.8196895e-08 -0.0007651499 -0.0005686584 -4.2184356e-06 4.7278004e-08
0.00041872906 1.36548e-05 -0.0005075322 3.0414866e-09 -0.00027135876 6.401965e-05 -1.6668205e-08 -0.00043817726
-1.239567e-38 -7.1611645e-08 9.1e-44 2.1e-44 -3.1623478e-11 -2.4945844e-14 1.167451e-39 -2.1e-44
-2.8917892e-13 -2.5499263e-25 -7.1744203e-12 -2e-44 -5.676331e-29 -1.3528463e-09 -6.2e-44 -2.1705642e-09
3.1312427e-07 4.3441264e-07 4.2761815e-07 7.058611e-07 -7.0934504e-08 -1.9483478e-07 -3.905892e-07 4.6e-44
-1.8103265e-06 -5.036383e-07 5.7492724e-07 -2.2e-44 2.073376e-06 7.5832894e-08 -8.9647885e-13 -2.0336379e-06
3.0815052e-05 0.0008753109 -1.332113e-07 -6.9360937e-07 -0.0006635866 0.0006162012 0.00026028402 -6.5541585e-08
0.00018111897 0.00034753265 0.0006970111 -4.2464695e-08 0.00042563982 0.00018414555 5.1859945e-07 0.00052359095
-1.2379779e-05 -0.00016605435 -4.9035375e-08 -5.2083874e-07 -0.0001903718 -0.00023542972 -4.6612382e-05 -7.656118e-15
-2.8312485e-05 -4.9293153e-06 -0.00027737473 2.261779e-12 -0.00012449294 -4.8932965e-05 2.495519e-07 -9.09857e-05
-0.00041475243 -0.0008894337 -2.8974336e-08 -1.5211291e-06 0.00048078905 4.3620654e-05 -0.00012746736 1.7337083e-08
-0.00018335765 -0.0005447699 0.00014251846 2.2527132e-08 -0.00011618733 -0.00022774932 -1.0722075e-07 -0.0008066433
8.996895e-08 0.0003241868 -2.7806333e-13 -2.3896277e-08 -0.00018641609 0.00016976701 0.00012512023 -6.465168e-10
9.423849e-05 0.000113334536 0.00016429042 -2.1238183e-10 0.0001891035 6.847203e-05 -9.082492e-09 0.0002440783
6.9853863e-06 -0.0007403612 1.6684552e-08 8.507926e-08 0.001115624 0.00040684582 -2.6627456e-05 5.636722e-08
-0.00011347849 -0.00018425097 0.00069330964 8.359672e-08 0.00021289744 -0.00016207887 1.3750726e-07 -0.00013613456
-9.0270405e-05 -0.0005078167 -8.23165e-07 7.3288487e-07 -1.16755045e-05 -6.6288936e-05 2.926236e-05 2.1953153e-09
-2.1758966e-05 -5.169698e-05 2.2648064e-06 2.7612581e-09 5.432775e-05 -0.00016821275 -2.2102203e-07 -8.5734835e-05
-0.00081552024 -0.00073515775 -2.7113396e-07 -1.7729722e-06 -0.001532927 -9.463378e-05 1.47868395e-05 5.05707e-08
-0.00033851634 0.000120388264 7.935404e-06 1.1320236e-07 0.00017232037 -0.00071757124 -4.1844504e-07 -0.00045682592
1.8948163e-06 -0.00058775325 -1.6520846e-07 -1.4496578e-06 0.0008726661 0.0003760443 7.547791e-05 1.3100377e-08
-4.5782388e-05 0.000106604275 0.00031416677 8.491624e-09 0.0001761534 -0.000124873 -1.4848492e-07 0.00021457295
7.009484e-06 -0.0008273982 -2.4952557e-10 8.723841e-09 0.0012468913 0.00045215784 -2.617601e-05 7.818266e-08
-0.00012716967 -0.00021050646 0.0007773225 4.1787434e-08 0.0002380823 -0.00018182446 5.585818e-07 -0.00014857289
3.2072336e-07 0.00038807478 -1.1906707e-06 -4.7659358e-07 -0.00022486372 0.0001948584 0.00014837683 -2.7905205e-09
0.00011097932 0.00013630302 0.00019706479 -9.380322e-10 0.00022659633 8.044233e-05 4.4055045e-07 0.00029145743
0.00011547366 0.00046326048 -6.2e-44 -1.65e-43 0.0025808117 -0.0007772724 -0.00060512393 -7.156617e-08
-0.00026201858 0.0014347276 -0.0013116947 -7.2988626e-13 -0.0011438793 3.6132307e-05 -7.6e-44 0.0021452021
-4.5295295e-12 -7.6860653e-13 -3.5e-44 2.1e-44 -1.3781296e-09 2.7134657e-38 -5.65414e-40 2.1e-44
4.8542506e-33 -8.689518e-12 4.02196e-40 -1.19e-43 6.836e-40 -2.355927e-16 -3.4e-44 -3.1806593e-09

exp_avg_sq f4 [16, 16]
00000000: 2655 ae29 b677 3825 bdbd a723 f2ad c321
00000010: cdf1 872b d27a dc29 716b a72b c66a f225
00000020: d497 4c26 25f6 4c2d 8975 f324 6388 a425
00000030: 0dae 6e23 2ae1 ba22 d046 a725 d64b 492e
00000040: 9d3a 4f3a 2a47 563a cb8a 902f f116 f72f
00000050: 1319 e93b 1e73 9f3a 5d4d 3338 202e 1e2e
00000060: 4dd2 2939 7571 793a b302 3d3a 4da1 0b2f
00000070: d47c d138 5b74 9d39 a6f9 b22f ecb1 9a3b
00000080: c541 fb2b d42a b930 5dfe 7424 ec0b a923
00000090: beed 342e 8b05 8b2d 5993 f82b 2e75 2a26
000000a0: edbd e02d 10fc 8c2c 2efa 202e 9c4e 9e23
000000b0: 5c4c 5b2c b867 8f2f e52f 152a 5717 bf2f
000000c0: 9a34 2631 f361 9934 a30a 7c31 68dc a031
000000d0: 5ea1 a833 cecd 0533 b4f4 cc32 168a 2522
000000e0: 1c97 1533 c66d 0733 500b 6333 5ab9 4c22
000000f0: 99e2 8333 d01b be32 330e 782e 3aab 1e34
00000100: af10 ab3b 6200 a03b ffe9 1132 3f5e ae33
00000110: 154d 1d3d 0162 ba3b 3384 b039 9d3f 6a2e
00000120: 7784 493a f40f e83b 082a 563b 203d ff2f
00000130: b9bc 393a 3688 e73a 16fe b632 2714 033d
00000140: cdc4 8c39 4f3f 7939 b93f ce32 a79c fe33
00000150: 6f79 1c3b 1f96 e039 cbb2 ba37 251f 462c
00000160: 6a71 9638 d6e7 c239 6ec1 6439 9c18 f42d
00000170: e352 2138 2795 bd38 c982 8f32 f79e e73a
00000180: b192 2e3b cf85 283b 3767 f030 5fff 7c32
00000190: b09d d93b 3963 7038 36c2 1f38 ce64 c12d
000001a0: ad28 dc38 3ce6 393b b7e5 d535 72cc 9b2f
000001b0: 313e 2638 4ab5 763a 5100 3b31 190e 293c
000001c0: 3c0f 433a 8541 293a 56a5 252e 3714 0430
000001d0: dbe5 fd3b 47f8 b93a d612 7a38 7d9f 142d
000001e0: 77ce 6e39 d419 883a 03a4 413a e49d 912e
000001f0: 3b8d dd38 5072 8239 caf9 a32f 158a a73b
00000200: a433 373b 50cc 343b 305d 8830 9efb 8830
00000210: 555d e13c 8d8a 883b f148 0338 2b50 3c2e
00000220: 2ee6 263a 3717 093b 6c9b 233b 0b82 4f30
00000230: 6270 ae38 e1ac 9a3a d9ad 8630 13a6 473c
00000240: b774 a23a 4f06 ae3a 07b2 b131 5efb db32
00000250: 5a69 2d3b f933 1435 813a d934 32a3 3d2d
00000260: 7be6 7837 8345 563a e6ee 4332 f003 032f
00000270: e2fb bc35 2e05 083a e236 1031 a02a 583b
00000280: 2668 9a3b 2910 a73b eee5 7532 7be7 9533
00000290: e191 293c 9192 4236 adb2 5f35 8749 2a2e
000002a0: 253d 5938 7c7c 393b d0fa 7934 9880 1530
000002b0: 682f 8136 950a 043b c999 2432 fadd 423c
000002c0: e5ba 213b 30ec 0c3b e996 a730 2da2 6d32
000002d0: 6fde 243c eba8 053a 8bdc 8538 7f25 9d2d
000002e0: bdc1 b639 2f26 483b 7a6e bc38 c481 702f
000002f0: 491a 4138 ebdd 583a 4d70 7a32 8f2c 403c
00000300: b70e 683b a183 653b f326 ea2e 8d74 9531
00000310: 209d 0b3d c2b6 a73b a6ea 1938 2794 702e
00000320: 8806 503a 9a47 2c3b 2b9f 473b f547 d52f
00000330: 33a2 c238 8dda c33a 44ef 5f32 0da6 783c
00000340: 32a4 903a 1df7 7d3a 413a 1e33 4571 5534
00000350: 96b6 3a3c 2824 0a3b 07cf c038 20d5 5b2d
00000360: 1589 b039 34ae c93a a5cd 8f3a 7c6f dd2e
00000370: 6092 2539 ff46 c239 7cfb 0033 4245 f73b
00000380: f688 3c3a 85b4 6239 4764 3c26 6789 f922
00000390: e847 e03d 8f86 333d b454 043b 25e6 da2e
000003a0: aaff 653b c496 153c d7d3 d83c 0709 f12d
000003b0: 283c 863b 3560 ec35 0571 1c26 8a6a 5b3d
000003c0: 2f3c df2d aa13 bd2d db64 9a24 c9a8 9e25
000003d0: 31b3 992e 99db 922b 57f5 902a 833d c425
000003e0: 5df6 f22b 3a85 c52d 815a 122b b460 e325
000003f0: c31d b72a a91c 1a2d bfbc ee25 72c8 c12e
7.741923e-14 1.6000016e-16 1.8186534e-17 1.3259757e-18 9.65944e-13 9.7912685e-14 1.1895885e-12 4.205266e-16
7.0982483e-16 1.16507125e-11 1.05583563e-16 2.8541884e-16 1.29388625e-17 5.0653803e-18 2.9017866e-16 4.5769465e-11
0.00079051574 0.00081740564 2.6292066e-10 4.494534e-10 0.007113585 0.0012165045 4.2748976e-05 3.5966008e-11
0.00016195439 0.00095155026 0.000721018 1.2699282e-10 9.989148e-05 0.00030032065 3.2555397e-10 0.004720917
1.7852877e-12 1.3472694e-09 5.312452e-17 1.8328066e-17 4.113842e-11 1.5804932e-11 1.7662357e-12 5.9139406e-16
2.5550196e-11 4.007024e-12 3.6601992e-11 1.7163687e-17 3.116416e-12 2.6085245e-10 1.3250475e-13 3.4759282e-10
2.418608e-09 2.8569738e-07 3.6676873e-09 4.68167e-09 7.852462e-08 3.1153654e-08 2.3860004e-08 2.2434772e-18
3.48292e-08 3.1531975e-08 5.2862845e-08 2.774528e-18 6.141381e-08 2.2131559e-08 5.6401283e-11 1.4777189e-07
0.0052204947 0.004882858 8.493315e-09 8.11965e-08 0.03840359 0.0056879525 0.00033667832 5.326194e-11
0.00076872803 0.00708198 0.0032678861 4.6427662e-10 0.0007085312 0.0017664495 2.1303133e-08 0.03200164
0.0002684951 0.00023770075 2.4010534e-08 1.18562916e-07 0.002387609 0.00042836458 2.2256185e-05 2.815478e-12
7.1736824e-05 0.00037175295 0.00021815833 2.7750517e-11 3.8462586e-05 9.040004e-05 1.6706865e-08 0.0017671277
0.0026637728 0.0025714522 1.7491634e-09 1.4726395e-08 0.0066411123 5.7312867e-05 3.8089427e-05 2.1986326e-11
0.00010497994 0.002836599 1.5936592e-06 2.8339603e-10 3.9635404e-05 0.00094111694 2.7212261e-09 0.010318303
0.000744093 0.00064566015 3.7663504e-11 4.805005e-10 0.007748348 0.0014188372 5.9622187e-05 8.4482395e-12
0.00022774363 0.0010383674 0.00073868054 6.6218836e-11 0.000105644074 0.00024880702 2.9827013e-10 0.005112896
0.0027954364 0.00275876 9.921788e-10 9.966816e-10 0.027510324 0.004166907 3.1300766e-05 4.2817454e-11
0.0006366697 0.0020918378 0.0024964465 7.5490963e-10 8.3178995e-05 0.001180079 9.799194e-10 0.012185591
0.0012394403 0.0013277027 5.1716174e-09 2.5609264e-08 0.00264605 5.5209927e-07 4.0461967e-07 1.0779643e-11
1.4835615e-05 0.000817381 1.1404813e-08 1.191578e-10 1.4080399e-06 0.000518876 2.0985955e-09 0.003298439
0.0047121225 0.005098362 1.4313157e-08 6.980459e-08 0.010349722 2.8993566e-06 8.333398e-07 3.871883e-11
5.1793777e-05 0.0028302958 2.3281177e-07 5.4388627e-10 3.8500184e-06 0.002014791 9.581023e-09 0.011893744
0.0024678048 0.0021503083 1.219374e-09 1.383209e-08 0.010062798 0.0005098718 6.3830135e-05 1.7865485e-11
0.0003485809 0.0030540337 8.9851164e-05 2.1873975e-10 4.6039266e-05 0.00082728144 1.45774495e-08 0.011729374
0.0035409161 0.0035021084 1.0648007e-10 4.349721e-09 0.034085393 0.005118222 3.6696576e-05 5.4701268e-11
0.00079355435 0.0026287795 0.0030459862 3.8795603e-10 9.280853e-05 0.0014942453 1.3034711e-08 0.015176308
0.0011035262 0.0009688007 3.6840223e-08 1.9878378e-07 0.011396071 0.002107868 9.193835e-05 1.2496032e-11
0.0003367147 0.0015387 0.0010971321 1.006972e-10 0.00015790155 0.0003705546 3.0031046e-08 0.007546098
0.00071920396 0.00021620288 6.5361504e-16 6.7637066e-18 0.10951215 0.043829497 0.0020192089 9.954374e-11
0.0035095015 0.009130184 0.0264682 2.7402537e-11 0.0040965267 1.761137e-06 5.427654e-16 0.0535684
2.5378892e-11 2.1495545e-11 6.695771e-17 2.7523004e-16 6.989465e-11 1.0434875e-12 2.5749777e-13 3.4042262e-16
1.7263514e-12 2.2455472e-11 5.199522e-13 3.9443751e-16 3.2527982e-13 8.76025e-12 4.1414318e-16 8.81223e-11

exp_avg f4 [16]
00000000: ea7c 20a9 875c cbb9 530d feb1 e6a4 3cb5
00000010: e27e 1b39 04da 8cb8 cc6d a9b9 f163 b538
00000020: 1001 9bb8 2762 13b9 b6db 4bba 7269 cbb7
00000030: b06d afb8 fa65 ce38 6a55 833a 5dee 30ac
-3.5635482e-14 -0.00038788115 -7.3938877e-09 -7.0275416e-07 0.0001482922 -6.716329e-05 -0.00032315997 8.649368e-05
-7.391174e-05 -0.00014055577 -0.0007776575 -2.4248588e-05 -8.365081e-05 9.84184e-05 0.0010019962 -2.5143423e-12

exp_avg_sq f4 [16]
00000000: 6a5d 042e 7ecd 873a 521f ff2f 30e9 6a34
00000010: 7a5a d73b cebd ba39 0008 193b 7ddc 8a3a
00000020: d357 623b 447f 7c3a 8c23 723b 3cd9 253b
00000030: 6b8e 8d3b b2f4 cc3a 968d dc3b 5133 b22d
3.0096294e-11 0.0010360924 4.6406484e-10 2.1877781e-07 0.006572065 0.000356181 0.0023350716 0.0010594275
0.003453721 0.0009632001 0.0036947457 0.0025306484 0.004319956 0.001563689 0.0067307455 2.0259046e-11

exp_avg f4 [1, 16]
00000000: 0f00 0080 7dbc 4b3a 8177 952e 0aca c335
00000010: 20cb eab9 5b66 d439 5bb1 7f3a 726e beb9
00000020: 5cd3 8538 9aed 363a 68e2 0d3a 8847 2d3a
00000030: fb4b 5239 cc4a d738 bac0 0f3a 3989 fcb3
-2.1e-44 0.00077719224 6.796964e-11 1.4587433e-06 -0.00044783298 0.00040512052 0.0009753906 -0.00036321912
6.381303e-05 0.00069781544 0.00054124603 0.0006610085 0.00020055466 0.00010265931 0.00054837356 -1.1759625e-07

exp_avg_sq f4 [1, 16]
00000000: 67fb 7e2a c735 9739 b859 772e 2740 d332
00000010: eea8 9d3c 10f3 d43a 110f 343c 7033 963d
00000020: 129a 283b 8df8 243b 08d7 723a accf 213c
00000030: f1b8 043b 195b 503d 4447 913a 61a6 8f31
2.2646955e-13 0.00028841032 5.6240984e-11 2.4592806e-08 0.019245591 0.0016246755 0.01098992 0.0733403
0.0025726599 0.0025172562 0.00092636095 0.009876173 0.0020251835 0.050868127 0.0011083861 4.180763e-09
