water/3eewt5yb/checkpoints/epoch=4999-step=4999.ckpt (torch, 11433 bytes, 16 tensors)

layers.0.weight f4 [16, 8]
0	0x8000d226	-7.5387e-41
1	0xbdf58931	-0.11989058
2	0xbec41b03	-0.38301858
3	0x3ebfc2f6	0.3745343
4	0x809f3097	-1.4619275e-38
5	0x8056f2e8	-7.984991e-39
6	0x000b11ee	1.016622e-39
7	0xbedf9fd0	-0.43676615
8	0x81985cca	-5.596913e-38
9	0xbe0ffb5c	-0.1406073
10	0x3d844040	0.06457567
11	0xbe3fa55e	-0.18715426
12	0x806b5598	-9.857103e-39
13	0x0025e5a7	3.480297e-39
14	0x009513f3	1.3690645e-38
15	0xbe05fba6	-0.13084278
16	0x00082754	7.48792e-40
17	0x3ed4659c	0.41483772
18	0x3d775937	0.060387816
19	0x3ea0425f	0.31300637
20	0x008bc7dc	1.283683e-38
21	0x806aaad2	-9.795841e-39
22	0x8042bbd6	-6.128526e-39
23	0xbed54c5d	-0.41659823
24	0x806398e5	-9.146562e-39
25	0xbe43b97a	-0.19113722
26	0x3e720384	0.23634154
27	0xbe2541f8	-0.16138446
28	0x80530842	-7.625309e-39
29	0x00309ea2	4.46501e-39
30	0x803e0511	-5.695618e-39
31	0xbf053907	-0.5204014
32	0x0003895c	3.24782e-40
33	0xbca66067	-0.02030964
34	0x3ca66367	0.02031107
35	0xbca665a5	-0.02031214
36	0x805193ee	-7.491742e-39
37	0x01ac67b8	6.333165e-38
38	0x01032068	2.408415e-38
39	0xbbb49058	-0.005510371
40	0x018bcf9b	5.1358435e-38
41	0x3e3f36a5	0.18673189
42	0xbe3f6c4d	-0.18693657
43	0x3e3e35d3	0.1857522
44	0x802e8752	-4.272977e-39
45	0x00573859	8.009902e-39
46	0x0005d5b6	5.35843e-40
47	0x3e70de38	0.2352227
48	0x0052b642	7.595892e-39
49	0xbe5aa3fc	-0.21351618
50	0xbe5936b5	-0.21212275
51	0x3eba2b42	0.36361128
52	0x804b7c54	-6.932263e-39
53	0x01d8dbf4	7.9661486e-38
54	0x808fe31e	-1.321395e-38
55	0x3e57fc28	0.21092284
56	0x0030c774	4.479654e-39
57	0x3b11c0a5	0.002224007
58	0xbd9ca93c	-0.076494664
59	0x3d0176ff	0.031607624
60	0x00289fa4	3.730688e-39
61	0x804e6f63	-7.203127e-39
62	0x0032dacb	4.670263e-39
63	0x3e104e49	0.14092363
64	0x007a8f14	1.1255257e-38
65	0x9fb3a00f	-7.6074244e-20
66	0x1fc44f6d	8.314063e-20
67	0x9fb237d1	-7.547827e-20
68	0x008e9d17	1.3096994e-38
69	0x00904518	1.3249098e-38
70	0x007e6549	1.1607607e-38
71	0x0c603a1f	1.7273822e-31
72	0x80145dac	-1.870313e-39
73	0x3a5db7d6	0.00084578746
74	0xbe3d69a5	-0.18497331
75	0x3eb4bbb3	0.35299453
76	0x8029d2d2	-3.840883e-39
77	0x819a771b	-5.6741574e-38
78	0x8022d1d2	-3.197676e-39
79	0xbe8ccda4	-0.2750064
80	0x8061b6a5	-8.973564e-39
81	0x3e6d70cf	0.23187564
82	0x3e22b423	0.15889029
83	0x3cacbf7b	0.021087399
84	0x000ab459	9.83052e-40
85	0x8069e01b	-9.723121e-39
86	0x0077f560	1.1016448e-38
87	0x3ee2e7f0	0.4431758
88	0x0034bcf1	4.843225e-39
89	0x3eae2dd1	0.3401933
90	0x3d5173df	0.051135894
91	0x3eacab04	0.33724225
92	0x006f0381	1.0194997e-38
93	0x8040c8d0	-5.94951e-39
94	0x000ce76e	1.185047e-39
95	0x3e59d5f5	0.21273024
96	0x80ebb5c8	-2.1646552e-38
97	0xa34d1daa	-1.1119354e-17
98	0x234be852	1.1053848e-17
99	0xa34caad6	-1.1095038e-17
100	0x802897d3	-3.727884e-39
101	0x812cf180	-3.1764678e-38
102	0x000e1744	1.294043e-39
103	0x187e346b	3.2855195e-24
104	0x818f0fb5	-5.255244e-38
105	0x3ed90314	0.4238516
106	0xbe67b707	-0.22628413
107	0xbcfdf79f	-0.031001864
108	0x002ab30c	3.921321e-39
109	0x0067fa03	9.548743e-39
110	0x004f40b0	7.27821e-39
111	0xbe099856	-0.13437018
112	0x8070420a	-1.0309266e-38
113	0x3e458ced	0.1929204
114	0x3e38a9cb	0.18033521
115	0x3e09c86f	0.13455366
116	0x003bda4a	5.496602e-39
117	0x005dcbcf	8.613814e-39
118	0x0084a774	1.2182356e-38
119	0x3f09e881	0.538704
120	0x001c6421	2.607313e-39
121	0x3cdeba10	0.02718833
122	0x3e41a4c3	0.18910508
123	0x3ddc9dca	0.107722834
124	0x8011eae6	-1.645469e-39
125	0x8019ae2c	-2.358368e-39
126	0x800a7d14	-9.63225e-40
127	0x3eed3df5	0.46336332

layers.0.bias f4 [16]
0	0x3ecd8d46	0.40146846
1	0x3deb98bb	0.115037404
2	0x3e0f7523	0.14009528
3	0xbe7773ba	-0.2416524
4	0xbca66232	-0.020310495
5	0x3e3deabd	0.18546577
6	0x3ead70bd	0.33875075
7	0x3e371708	0.1787988
8	0x9fb6a0bf	-7.734593e-20
9	0xbdf50350	-0.119635224
10	0x3df47714	0.11936775
11	0x3e3116ea	0.17293897
12	0xa34deb32	-1.1162877e-17
13	0x3e435034	0.19073564
14	0x3de6cebe	0.11269902
15	0x3e8db6e1	0.27678588

layers.2.weight f4 [16, 16]
0	0x3f03605c	0.5131891
1	0x3ab3190b	0.001366408
2	0x3e506b3c	0.20353407
3	0x3e1c3749	0.15255465
4	0x99c3b2fa	-2.0234815e-23
5	0xbde9b8b2	-0.11412181
6	0x3c91d82e	0.017803278
7	0xbdbfca44	-0.09364751
8	0x8011381a	-1.581329e-39
9	0x3ea63d2e	0.3246855
10	0xbf47b242	-0.78006375
11	0xbe1c277b	-0.15249436
12	0x8104a987	-2.43662e-38
13	0x3ecd031d	0.40041438
14	0xbd29207b	-0.04129074
15	0xbd87f937	-0.06639331
16	0x95fbf80f	-1.0176946e-25
17	0x8018ad84	-2.266298e-39
18	0x8639b45e	-3.4927146e-35
19	0x800ff7b0	-1.466386e-39
20	0x00165938	2.052387e-39
21	0x009c6d84	1.4365624e-38
22	0x805ba840	-8.417387e-39
23	0x0060d76a	8.893484e-39
24	0x007c1ea8	1.1398599e-38
25	0x8060d72f	-8.893401e-39
26	0x00363ca2	4.980868e-39
27	0x002f4e6b	4.3444e-39
28	0x0206e5af	9.910681e-38
29	0x00193ca9	2.317648e-39
30	0x003eac60	5.755637e-39
31	0x00601281	8.822846e-39
32	0xbc5fdfba	-0.01366418
33	0x3c86b441	0.016443374
34	0xbe1eb54b	-0.15498845
35	0x802f4948	-4.342557e-39
36	0xbaea238e	-0.0017863379
37	0x3deaa59b	0.11457368
38	0x3e2707fa	0.16311637
39	0x3e11d634	0.14241868
40	0x09d25039	5.0631102e-33
41	0xbe8a5aec	-0.27022493
42	0x3e912229	0.28346375
43	0x3e8b80cf	0.2724671
44	0x8001a347	-1.50408e-40
45	0xbe2771ed	-0.16352053
46	0x3d991182	0.074740425
47	0x3ea10eb3	0.31456527
48	0x3dc8d3c5	0.09806017
49	0xba3b9ae3	-0.0007156564
50	0x3edd4da7	0.43223307
51	0xbe68f91c	-0.22751278
52	0x39c3659e	0.0003726901
53	0x3e8ed252	0.27894837
54	0xbdd52ddf	-0.1040914
55	0x3dc1a1fb	0.094547234
56	0x004cc1f3	7.049074e-39
57	0x3e32db58	0.17466486
58	0xbe914683	-0.2837411
59	0x3e0de5c4	0.1385718
60	0x0061b054	8.971298e-39
61	0x3ec3f036	0.38269204
62	0xbe300f8b	-0.17193429
63	0xbe51150b	-0.20418184
64	0xbd2eb45e	-0.04265248
65	0x2e3b9cd2	4.265816e-11
66	0x3c51b6ef	0.012799962
67	0x80030e23	-2.80578e-40
68	0x804b944c	-6.940861e-39
69	0xbbb4d86f	-0.005518965
70	0xbc8080ed	-0.015686477
71	0xbb1d02ba	-0.0023957924
72	0x0036d330	5.034877e-39
73	0x3c0b0589	0.008485206
74	0xbc067f6b	-0.00820909
75	0xbce6b330	-0.028161615
76	0x81a69294	-6.11891e-38
77	0xbcbade08	-0.02281095
78	0x3dcd23ba	0.1001658
79	0xbba55171	-0.005045109
80	0xbecf1eb1	-0.40453103
81	0x3b5f7e09	0.0034102222
82	0x3d3c8222	0.04602254
83	0xb22a24ea	-9.903696e-09
84	0xba2efb6d	-0.00066750386
85	0x3d5fd126	0.05464282
86	0x3eb8ca89	0.36092022
87	0x3db9dcbd	0.090753056
88	0x000a3263	9.3643e-40
89	0xbe302ce8	-0.1720463
90	0x3b8d7cef	0.0043178718
91	0x3eb632eb	0.35585722
92	0x803c7a5f	-5.554028e-39
93	0xbdbdb130	-0.092623115
94	0xbdb71183	-0.08938887
95	0x3eb3e43d	0.3513507
96	0x3bafb9d8	0.0053627305
97	0x82ba8e3c	-2.7411882e-37
98	0x3b95baff	0.004569411
99	0xb8be9880	-9.088311e-05
100	0x996cc067	-1.2239769e-23
101	0x3d2b274c	0.041785523
102	0x3ce15cdc	0.0275101
103	0x3b8fc3ce	0.0043873554
104	0x000e84dd	1.33336e-39
105	0x3d96fa57	0.07371967
106	0xbc653a03	-0.013990882
107	0x3b4cdc1d	0.0031259127
108	0x01425620	3.5693964e-38
109	0xb9dc1ac3	-0.0004198161
110	0xbd0d8e88	-0.034559757
111	0x3aed7ba3	0.0018118512
112	0xae05bb75	-3.0407194e-11
113	0x0084c984	1.2194576e-38
114	0xa99a504b	-6.8529024e-14
115	0x015ff472	4.1134012e-38
116	0x80944318	-1.3615722e-38
117	0x8052990e	-7.585416e-39
118	0x0b14fa23	2.8691945e-32
119	0x80118f18	-1.612536e-39
120	0x802ffd85	-4.407214e-39
121	0x9a729cc4	-5.017106e-23
122	0x00016169	1.2678e-40
123	0x953852ca	-3.7223813e-26
124	0x817c1cc8	-4.630574e-38
125	0xa69892f4	-1.058695e-15
126	0x0000c6fb	7.1381e-41
127	0x0044c6e6	6.316165e-39
128	0x39cd9b61	0.00039216413
129	0x3c973207	0.018456472
130	0xbed5e692	-0.41777474
131	0xb6f6fa26	-7.3604924e-06
132	0xbb122a9e	-0.0022303234
133	0x3e92df6b	0.2868608
134	0x3e12fc36	0.14354023
135	0x3e49fd40	0.19725513
136	0x0024c1ff	3.37567e-39
137	0xbc10d973	-0.008840906
138	0x3e5439d1	0.2072518
139	0x3c1504a8	0.009095348
140	0x001704fb	2.114003e-39
141	0x3d835889	0.06413371
142	0x3eacefb1	0.3377662
143	0x3bc0ea2d	0.005887291
144	0x3ece502e	0.40295547
145	0x3d455ab1	0.048182193
146	0x3eccec64	0.40024102
147	0xbed99efa	-0.42504102
148	0x3b758bd9	0.003746739
149	0x3e9b75ad	0.30363217
150	0x3dc8ccc8	0.09804684
151	0x3dc9bc07	0.098503165
152	0x10d2582c	8.2966245e-29
153	0x3e133697	0.14376293
154	0xbeb77d7c	-0.35837924
155	0x3e0e65b6	0.13905987
156	0x009d43ae	1.4442452e-38
157	0x3de10265	0.10986785
158	0xbe4514a9	-0.19246162
159	0xbdc0a617	-0.09406679
160	0xbdb5ddbe	-0.088801846
161	0x3bb30b87	0.0054640207
162	0xbe80e642	-0.25175673
163	0xa5b7cfea	-3.1886328e-16
164	0xba977e70	-0.0011558067
165	0x3ee8e47e	0.45486826
166	0x3e893243	0.2679616
167	0x3e7f2df7	0.24919878
168	0x80000436	-1.51e-42
169	0xbee68c42	-0.45028883
170	0x3e9a2fc4	0.30114567
171	0x3e10275d	0.14077516
172	0x006198e0	8.962884e-39
173	0xbc28f1b1	-0.01031153
174	0x3e87ee4d	0.26548997
175	0x3eb54850	0.35406733
176	0xbe8ee387	-0.27907965
177	0x3cb5aa87	0.02217604
178	0x3d221696	0.03957232
179	0xb0beb18e	-1.3874784e-09
180	0xb9a6a049	-0.0003178141
181	0x3d802edd	0.062589385
182	0xbd101d37	-0.03518411
183	0x3db6afea	0.08920272
184	0x80252b08	-3.41335e-39
185	0x3b84b594	0.004049966
186	0x3e73afe0	0.2379756
187	0x3dfaff6a	0.122557476
188	0x000b77ff	1.053237e-39
189	0xbe2d8bc1	-0.16947843
190	0x3d764927	0.060128357
191	0x3ea1d2b9	0.3160608
192	0x3de6e4ba	0.11274095
193	0x00034b73	3.02573e-40
194	0x3e5bf2f4	0.21479398
195	0xbe9a6ff4	-0.30163538
196	0x3ac1fce4	0.0014800099
197	0x3e956284	0.29176724
198	0x3e9383df	0.28811547
199	0x3dba65cf	0.0910145
200	0x80009424	-5.3143e-41
201	0x3dae5193	0.08511653
202	0xbea512f2	-0.32241017
203	0x3e87ca52	0.26521546
204	0x00102ae7	1.484758e-39
205	0x3d4572b0	0.048205078
206	0xbe6a2334	-0.22864991
207	0xbe928b3f	-0.2862186
208	0x3e8f3a0c	0.27973974
209	0x36c8a1c7	5.979298e-06
210	0x3e6f2189	0.23352636
211	0xbe0f96a1	-0.14022304
212	0x3768a59a	1.3866835e-05
213	0x3e81440d	0.2524723
214	0x3e98158b	0.29703936
215	0x3d9015b7	0.07035392
216	0x80145b38	-1.869433e-39
217	0x3e14b6a7	0.14522801
218	0xbe5912a3	-0.21198516
219	0x3dd5331d	0.1041014
220	0x805af868	-8.354306e-39
221	0xbceff7ee	-0.029293027
222	0xbdd3af0f	-0.10336124
223	0xbe0f83e7	-0.1401516
224	0x3d930039	0.07177777
225	0xbccd332b	-0.025048813
226	0x3d1e60e6	0.03866663
227	0xb8ba1eba	-8.8748944e-05
228	0x82259b11	-1.2166787e-37
229	0x30e7580e	1.6832489e-09
230	0xbe07ebc6	-0.13273534
231	0xb0316af0	-6.454419e-10
232	0x8045a5d4	-6.396137e-39
233	0x3d7eecb1	0.062237445
234	0x0091f42e	1.3403742e-38
235	0xbdd0e950	-0.10200751
236	0x0044eaf2	6.329096e-39
237	0xbe02763c	-0.12740415
238	0xbe850be7	-0.25985643
239	0xbcadc6ca	-0.021212954
240	0xbe984d81	-0.2974663
241	0xbdc414c3	-0.095742725
242	0xbe827fe8	-0.2548821
243	0x375183b7	1.2488038e-05
244	0xbb13b5c2	-0.0022538756
245	0x3e0fa7e9	0.14028896
246	0x3eaa593c	0.33271205
247	0x3def6877	0.11689847
248	0x0b1a9cc0	2.9777247e-32
249	0xbe30be6f	-0.17260145
250	0x3e7e399c	0.24826664
251	0x3e77dd42	0.24205497
252	0x8020a856	-2.999123e-39
253	0x3dd37ec8	0.10326916
254	0x3ea9b609	0.33146694
255	0x3dbc9c28	0.09209472

layers.2.bias f4 [16]
0	0x3d8c47b4	0.06849614
1	0x000c35ae	1.121283e-39
2	0xba55a2a9	-0.00081495434
3	0x3e395fe1	0.18102981
4	0xbc3eefec	-0.0116538815
5	0x3d2058d3	0.03914721
6	0xbd6007b4	-0.054694846
7	0xa478faf8	-5.3989007e-17
8	0x3d61dcf7	0.05514237
9	0x3d5a86e4	0.053351298
10	0x3ccc8187	0.024964107
11	0x3ea74c2a	0.32675296
12	0x3dccabd9	0.09993715
13	0x3e5841e9	0.21118893
14	0xbd039072	-0.032120176
15	0x3d91bd91	0.07116235

layers.4.weight f4 [1, 16]
0	0x3e82b974	0.25532115
1	0x802e4e8e	-4.252613e-39
2	0x3ea82998	0.32844234
3	0xbe82f6e3	-0.25578985
4	0xbba5d8dd	-0.0050612525
5	0x3e86e9d5	0.26350275
6	0x3c2bde48	0.010490008
7	0x2d522fea	1.1947757e-11
8	0x3eaa59c1	0.33271602
9	0xbecfafca	-0.40563804
10	0x3e949ba3	0.2902499
11	0x3e6d7420	0.2318883
12	0xbea52a4a	-0.32258826
13	0xbe2e5e3e	-0.17028138
14	0xbb2f63a0	-0.0026762262
15	0x3eb4461c	0.3520974

cel.weight f4 [2]
0	0x3f800000	1.0
1	0x3fe28f5c	1.77

exp_avg f4 [16, 8]
0	0x00000004	6e-45
1	0xba12dca9	-0.0005602339
2	0x3a118b27	0.00055520464
3	0xba1190d7	-0.0005552894
4	0x8000005f	-1.33e-43
5	0x80000037	-7.7e-44
6	0x0000000e	2e-44
7	0xb801fd82	-3.0992094e-05
8	0x00000075	1.64e-43
9	0xb5bd8f31	-1.4123272e-06
10	0x352e1d76	6.486292e-07
11	0xb5fc4fbc	-1.8798669e-06
12	0x8000004a	-1.04e-43
13	0x00000019	3.5e-44
14	0x0000005f	1.33e-43
15	0xb5b02087	-1.3122489e-06
16	0x00000005	7e-45
17	0xba6c65ad	-0.00090178364
18	0x3a6da49a	0.000906536
19	0xba6caa03	-0.0009028019
20	0x00000055	1.19e-43
21	0x80000041	-9.1e-44
22	0x8000002c	-6.2e-44
23	0x38afb088	8.377532e-05
24	0x8000004a	-1.04e-43
25	0x37be7a89	2.2706825e-05
26	0xb7baaedb	-2.2254351e-05
27	0x37c0fa1f	2.3004655e-05
28	0x80000036	-7.6e-44
29	0x00000022	4.8e-44
30	0x8000002c	-6.2e-44
31	0xb7f7c9d8	-2.9538685e-05
32	0x80000004	-6e-45
33	0xb45ff57c	-2.08578e-07
34	0x345ff984	2.0859267e-07
35	0xb45ffc89	-2.0860365e-07
36	0x80000036	-7.6e-44
37	0x00000052	1.15e-43
38	0x80000042	-9.2e-44
39	0xb3777689	-5.7616976e-08
40	0x0000000c	1.7e-44
41	0xb995055f	-0.00028423496
42	0x39950519	0.00028423293
43	0xb99506b0	-0.00028424477
44	0x80000019	-3.5e-44
45	0x00000037	7.7e-44
46	0x00000004	6e-45
47	0x39bb9298	0.0003577664
48	0x00000036	7.6e-44
49	0x38d015f5	9.922303e-05
50	0xb8d90369	-0.000103480015
51	0x38dc30d6	0.00010499514
52	0x8000002d	-6.3e-44
53	0x00000009	1.3e-44
54	0x80000055	-1.19e-43
55	0x39859af1	0.00025483177
56	0x00000019	3.5e-44
57	0x3838f9a4	4.4101515e-05
58	0xb83c1748	-4.4844375e-05
59	0x383a3530	4.439539e-05
60	0x00000019	3.5e-44
61	0x8000002d	-6.3e-44
62	0x00000019	3.5e-44
63	0x3945d34b	0.00018866097
64	0x0000004b	1.05e-43
65	0x97a116b0	-1.0410108e-24
66	0x17b00a61	1.1376353e-24
67	0x979fd3bf	-1.0328586e-24
68	0x00000055	1.19e-43
69	0x0000005f	1.33e-43
70	0x0000004b	1.05e-43
71	0x03ad7c3a	1.0196547e-36
72	0x8000000e	-2e-44
73	0xb9ee8543	-0.00045494185
74	0x39ed8e1c	0.00045310042
75	0xb9ecac99	-0.00045142023
76	0x80000019	-3.5e-44
77	0x00000046	9.8e-44
78	0x80000018	-3.4e-44
79	0xb8a6110a	-7.9186706e-05
80	0x80000037	-7.7e-44
81	0x3a03a94b	0.000502248
82	0xba02a30b	-0.0004983402
83	0x3a031bd5	0.0005001401
84	0x00000005	7e-45
85	0x80000041	-9.1e-44
86	0x0000004b	1.05e-43
87	0x397c1d9e	0.00024043626
88	0x0000002c	6.2e-44
89	0xb89974ad	-7.317341e-05
90	0x38a1aa15	7.7087585e-05
91	0xb8998487	-7.320294e-05
92	0x00000041	9.1e-44
93	0x8000002c	-6.2e-44
94	0x0000000e	2e-44
95	0x39987699	0.0002908006
96	0x8000004a	-1.04e-43
97	0x9b508dd5	-1.7251185e-22
98	0x1b4f59bd	1.7151635e-22
99	0x9b501b7a	-1.7214235e-22
100	0x80000022	-4.8e-44
101	0x00000066	1.43e-43
102	0x00000005	7e-45
103	0x90b8bb32	-7.2863623e-29
104	0x00000086	1.88e-43
105	0xb92a817f	-0.00016260704
106	0x392c93e9	0.00016458299
107	0xb92f46ab	-0.00016715626
108	0x00000022	4.8e-44
109	0x00000041	9.1e-44
110	0x00000036	7.6e-44
111	0x376a9c3a	1.3983861e-05
112	0x80000041	-9.1e-44
113	0x3a17ad12	0.00057859824
114	0xba16b290	-0.0005748654
115	0x3a1785e8	0.00057801465
116	0x0000002c	6.2e-44
117	0x00000037	7.7e-44
118	0x00000055	1.19e-43
119	0x392f30b8	0.0001670745
120	0x00000018	3.4e-44
121	0x39f87a02	0.0004739315
122	0xb9f757b0	-0.00047176844
123	0x39f8e61d	0.00047473694
124	0x80000005	-7e-45
125	0x8000000f	-2.1e-44
126	0x80000005	-7e-45
127	0x399402c7	0.0002823083

exp_avg_sq f4 [16, 8]
0	0x26b57590	1.2591263e-15
1	0x38a043c6	7.642018e-05
2	0x38a0439f	7.64199e-05
3	0x38a0439e	7.641989e-05
4	0x272378a2	2.268619e-15
5	0x206f04b0	2.0245638e-19
6	0x2612a6b1	5.0879834e-16
7	0x38481263	4.770084e-05
8	0x23e72436	2.5060406e-17
9	0x32593e2f	1.2645201e-08
10	0x32593ab1	1.2644407e-08
11	0x325944dc	1.2646719e-08
12	0x2704a446	1.8407733e-15
13	0x25bda8b2	3.2900586e-16
14	0x26b09199	1.2251918e-15
15	0x32fa8552	2.9164458e-08
16	0x271deae4	2.1915461e-15
17	0x39064339	0.00012804278
18	0x3906434a	0.00012804303
19	0x3906433f	0.00012804287
20	0x225a2d5c	2.9568522e-18
21	0x240e5ef2	3.0871764e-17
22	0x23c44556	2.1279727e-17
23	0x388a84f5	6.605118e-05
24	0x26b026f0	1.2223007e-15
25	0x3497e871	2.8295065e-07
26	0x3497e83e	2.829492e-07
27	0x3497e8a3	2.8295207e-07
28	0x270d1b25	1.9582396e-15
29	0x26d25b4b	1.4596422e-15
30	0x26d17a37	1.4535415e-15
31	0x3548c1da	7.4787897e-07
32	0x264615ca	6.872458e-16
33	0x2fcd30b5	3.732389e-10
34	0x2fcd30d3	3.7323974e-10
35	0x2fcd30ec	3.7324044e-10
36	0x242963b6	3.6730492e-17
37	0x232258dc	8.800854e-18
38	0x21cf0d5f	1.4030405e-18
39	0x2f19ba1f	1.3981392e-10
40	0x23b2ff3e	1.9406898e-17
41	0x35b3194c	1.3343902e-06
42	0x35b3194c	1.3343902e-06
43	0x35b3194d	1.3343903e-06
44	0x2694bdf0	1.0321046e-15
45	0x26b366de	1.2448502e-15
46	0x23db3e38	2.3770378e-17
47	0x362f92ed	2.6162554e-06
48	0x26541143	7.357567e-16
49	0x3755a935	1.2735186e-05
50	0x3755a925	1.2735171e-05
51	0x3755a928	1.2735174e-05
52	0x24433d3c	4.2335752e-17
53	0x20769445	2.0886069e-19
54	0x238e3f25	1.5422414e-17
55	0x37c23913	2.315318e-05
56	0x265a002d	7.563418e-16
57	0x36ecce26	7.057347e-06
58	0x36ecce3a	7.057356e-06
59	0x36ecce2e	7.0573506e-06
60	0x23340553	9.758947e-18
61	0x253dcae8	1.6461884e-16
62	0x26dcef23	1.5330385e-15
63	0x36b97f8c	5.528278e-06
64	0x264a8f49	7.0277016e-16
65	0x2cd004de	5.912256e-12
66	0x2cd01151	5.913638e-12
67	0x2cd0044d	5.912193e-12
68	0x24f6321c	1.0677038e-16
69	0x24041afa	2.8645787e-17
70	0x26912e4d	1.0073946e-15
71	0x2c48bd78	2.8526886e-12
72	0x23715bbd	1.30840625e-17
73	0x3863dbe3	5.4325803e-05
74	0x3863dbe7	5.4325817e-05
75	0x3863dbd0	5.4325734e-05
76	0x26756f7b	8.5152535e-16
77	0x21f45e92	1.6559116e-18
78	0x26d0f144	1.4498294e-15
79	0x37fec4ff	3.0370893e-05
80	0x26be8020	1.3218627e-15
81	0x39064b29	0.00012807235
82	0x39064b3c	0.00012807263
83	0x39064b3b	0.00012807261
84	0x26c1ffd1	1.3461404e-15
85	0x262787b2	5.8123666e-16
86	0x231e1672	8.56995e-18
87	0x388ab0e8	6.613304e-05
88	0x27178dca	2.1032324e-15
89	0x36aaf69e	5.095105e-06
90	0x36aaf6f1	5.0951426e-06
91	0x36aaf69c	5.095104e-06
92	0x26887ede	9.471283e-16
93	0x24c1f50c	8.411553e-17
94	0x2526e3c6	1.4475377e-16
95	0x374c2f27	1.2170326e-05
96	0x2140a0f7	6.5265166e-19
97	0x2c9518b1	4.237576e-12
98	0x2c951005	4.2366132e-12
99	0x2c95156f	4.2372143e-12
100	0x24fa0fb8	1.08446846e-16
101	0x22071380	1.8306235e-18
102	0x237180af	1.3091886e-17
103	0x2c4c61aa	2.9044358e-12
104	0x2226ae5e	2.2589504e-18
105	0x372d4a52	1.0328908e-05
106	0x372d4a65	1.0328925e-05
107	0x372d4a87	1.0328956e-05
108	0x23ee936a	2.5866444e-17
109	0x2665320b	7.9518156e-16
110	0x260eea6b	4.958384e-16
111	0x36c2a3c6	5.8007163e-06
112	0x23a08a7e	1.7405888e-17
113	0x388b3cef	6.639386e-05
114	0x388b3cec	6.639384e-05
115	0x388b3cf6	6.639391e-05
116	0x2575984d	2.1301964e-16
117	0x2612fb4c	5.0994496e-16
118	0x251fedb4	1.3871589e-16
119	0x381a0477	3.672062e-05
120	0x25fb502d	4.3595888e-16
121	0x38bb4ad2	8.930791e-05
122	0x38bb4ac3	8.93078e-05
123	0x38bb4ac9	8.930785e-05
124	0x23ce22b3	2.234926e-17
125	0x23f4a880	2.6525896e-17
126	0x26a03467	1.1116434e-15
127	0x3863ca29	5.4309294e-05

exp_avg f4 [16]
0	0xba117ec1	-0.0005550199
1	0x359b1651	1.1554895e-06
2	0xba6d1e0a	-0.00090453087
3	0x37ba3cb3	2.2201193e-05
4	0xb45ff7e3	-2.0858674e-07
5	0xb9950718	-0.0002842478
6	0x38dbab5f	0.00010474654
7	0x384061e1	4.5867524e-05
8	0x97a3c79f	-1.058402e-24
9	0xb9ef2700	-0.0004561469
10	0x3a035dcc	0.000501123
11	0xb89cf6c7	-7.4846255e-05
12	0x9b515a75	-1.7317303e-22
13	0xb92cf35e	-0.0001649386
14	0x3a177734	0.00057779555
15	0x39f9c8fd	0.0004764273

exp_avg_sq f4 [16]
0	0x38a04399	7.6419856e-05
1	0x32595ed8	1.2652627e-08
2	0x39064344	0.00012804294
3	0x3497e836	2.8294897e-07
4	0x2fcd30c4	3.7323933e-10
5	0x35b3194e	1.3343904e-06
6	0x3755a934	1.2735185e-05
7	0x36ecce55	7.0573683e-06
8	0x2cd006d2	5.9124728e-12
9	0x3863dbfb	5.432589e-05
10	0x39064b33	0.0001280725
11	0x36aaf6b4	5.095115e-06
12	0x2c951e79	4.238218e-12
13	0x372d4a6d	1.0328932e-05
14	0x388b3cf3	6.639389e-05
15	0x38bb4ac2	8.9307796e-05

exp_avg f4 [16, 16]
0	0x39e02bb7	0.0004275718
1	0x326eaa4a	1.38921425e-08
2	0x39b1c9f3	0.00033910535
3	0x348f4c58	2.6691373e-07
4	0x101356f3	2.9057622e-29
5	0x396844f5	0.00022150933
6	0x39680d48	0.00022130192
7	0x38ae3f92	8.3088074e-05
8	0x8000000e	-2e-44
9	0x39424b9a	0.00018529446
10	0x38a6fc50	7.962494e-05
11	0x3983e8dd	0.00025159764
12	0x00000036	7.6e-44
13	0x39a09443	0.00030628042
14	0x38de77d3	0.00010608104
15	0x38bed367	9.099283e-05
16	0x8e0817a8	-1.6774684e-30
17	0x8000000f	-2.1e-44
18	0x800468c0	-4.04919e-40
19	0x8000000e	-2e-44
20	0x0000000f	2.1e-44
21	0x0000005f	1.33e-43
22	0x80000040	-9e-44
23	0x00000040	9e-44
24	0x0000004b	1.05e-43
25	0x80000040	-9e-44
26	0x00000023	4.9e-44
27	0x00000022	4.8e-44
28	0x00000063	1.39e-43
29	0x00000018	3.4e-44
30	0x0000002c	6.2e-44
31	0x00000037	7.7e-44
32	0x398107f8	0.00024610735
33	0x343303bc	1.6672033e-07
34	0x393a68c6	0.00017777373
35	0x80000019	-3.5e-44
36	0xb2a28e2d	-1.8923936e-08
37	0x3986606d	0.00025630314
38	0x3980836b	0.00024511977
39	0x38e9bc64	0.00011145396
40	0x02116b00	1.0683625e-37
41	0x38a8774e	8.0330865e-05
42	0x390b57f0	0.00013288832
43	0x39902939	0.00027496534
44	0x00000004	6e-45
45	0x39658837	0.00021889886
46	0x39267ce0	0.00015877513
47	0x3911efb7	0.00013917578
48	0xba0bfc28	-0.00053400034
49	0xb1fb8df2	-7.3211988e-09
50	0xb9dd5bf3	-0.00042220912
51	0xb5873f8f	-1.0076782e-06
52	0x318ad5f8	4.040654e-09
53	0xb9953263	-0.00028457036
54	0xb9957284	-0.00028504815
55	0xb8e2c655	-0.00010813462
56	0x00000036	7.6e-44
57	0xb96ee250	-0.00022781757
58	0xb8ca3e7b	-9.6437485e-05
59	0xb9a9e463	-0.00032404353
60	0x00000037	7.7e-44
61	0xb9c7018a	-0.00037957384
62	0xb8f22366	-0.00011546053
63	0xb8d1c1d4	-0.00010002
64	0xb4c36fdc	-3.640297e-07
65	0x260dd1c3	4.920348e-16
66	0x342eed84	1.629142e-07
67	0x80000004	-6e-45
68	0x8000002d	-6.3e-44
69	0x33fa5bc0	1.16582214e-07
70	0xb1efa36d	-6.974395e-09
71	0x3396180f	6.9892955e-08
72	0x00000023	4.9e-44
73	0x33c476c2	9.148563e-08
74	0x333c47a3	4.3837314e-08
75	0xb3fd6dea	-1.1801224e-07
76	0x00000012	2.5e-44
77	0xb4129140	-1.3650151e-07
78	0x359bc815	1.1606631e-06
79	0x33b09110	8.2220254e-08
80	0x394b3407	0.0001937897
81	0x3313e55e	3.4434713e-08
82	0x391789c2	0.00014451801
83	0xa9f58427	-1.09031104e-13
84	0xb1f67efe	-7.1739796e-09
85	0x3957a1b4	0.00020564237
86	0x395100e7	0.0001993213
87	0x38bb62c0	8.9352485e-05
88	0x0000000e	2e-44
89	0x388841f8	6.497273e-05
90	0x38db6ad0	0.00010462629
91	0x39692e51	0.00022237866
92	0x80000023	-4.9e-44
93	0x3938db35	0.00017629268
94	0x3904508c	0.00012618507
95	0x38ecc667	0.00011290312
96	0x3799e00b	1.834335e-05
97	0x00000078	1.68e-43
98	0x3776d3fd	1.47121e-05
99	0xb15b705e	-3.1932568e-09
100	0x901e9a25	-3.1278754e-29
101	0x37201b1d	9.543056e-06
102	0x371d3012	9.3691215e-06
103	0x36664b90	3.4316654e-06
104	0x0000000e	2e-44
105	0x37123272	8.714023e-06
106	0x365bb0ba	3.2736411e-06
107	0x372fa07a	1.0468177e-05
108	0x80000035	-7.4e-44
109	0x3758377e	1.2887524e-05
110	0x367ff4aa	3.8140374e-06
111	0x36719ce8	3.600313e-06
112	0xa5c8ab35	-3.4810484e-16
113	0x00000055	1.19e-43
114	0xa1723d28	-8.207373e-19
115	0x0000001b	3.8e-44
116	0x8000005f	-1.33e-43
117	0x80000036	-7.6e-44
118	0x02f5e71f	3.6132171e-37
119	0x8000000e	-2e-44
120	0x80000022	-4.8e-44
121	0x926be26d	-7.4432016e-28
122	0x80000004	-6e-45
123	0x8d4ccc3b	-6.3108187e-31
124	0x80000063	-1.39e-43
125	0x9e79aad9	-1.3217281e-20
126	0x00000004	6e-45
127	0x0000002d	6.3e-44
128	0x39915302	0.000277184
129	0x34478171	1.858041e-07
130	0x39528e05	0.00020080067
131	0xaeab9917	-7.803374e-11
132	0xb2ca5921	-2.3556426e-08
133	0x398c6351	0.00026776877
134	0x398575a5	0.0002545539
135	0x38f1077a	0.00011493168
136	0x00000062	1.37e-43
137	0x38cc7d80	9.750854e-05
138	0x39048761	0.00012638934
139	0x3994b7c8	0.00028365687
140	0x00000018	3.4e-44
141	0x397c38e7	0.0002405379
142	0x39220db8	0.00015454635
143	0x390896aa	0.00013026097
144	0xba5e3df0	-0.00084778573
145	0x35022394	4.8480547e-07
146	0xba30fd64	-0.00067516253
147	0xb614566f	-2.210403e-06
148	0x3328ae6f	3.9274195e-08
149	0xb9ee3c15	-0.00045439662
150	0xb9ec7eaa	-0.000451078
151	0xb93500fb	-0.0001726187
152	0x090ebf24	1.7182502e-33
153	0xb9bee692	-0.00036411412
154	0xb91ff1e4	-0.00015253533
155	0xba076e08	-0.0005166237
156	0x0000005f	1.33e-43
157	0xba1fba52	-0.00060931325
158	0xb93fd088	-0.00018292863
159	0xb9247a6e	-0.00015685867
160	0x3985363c	0.00025408145
161	0x336f260c	5.5681127e-08
162	0x3943ff10	0.00018691667
163	0x9d98a609	-4.040574e-21
164	0xb253bdb8	-1.23249535e-08
165	0x397e5ba1	0.00024257462
166	0x3971185e	0.00022992629
167	0x38d8e4f3	0.00010342328
168	0x00000004	6e-45
169	0x38b53fd4	8.6426415e-05
170	0x38e9fd14	0.00011157445
171	0x39865d30	0.00025627902
172	0x00000040	9e-44
173	0x39651038	0.00021845184
174	0x390d3f68	0.00013470429
175	0x38f5e7f4	0.00011725715
176	0x390c1f4c	0.000133631
177	0x3470e34b	2.243443e-07
178	0x38cc70a9	9.7484626e-05
179	0xa88b5ed4	-1.5473225e-14
180	0xb16d55a1	-3.4536713e-09
181	0x3924a1f1	0.00015700587
182	0x391c7071	0.00014919207
183	0x389240a5	6.9738635e-05
184	0x8000000f	-2.1e-44
185	0x383460b3	4.3005402e-05
186	0x38bbd9c1	8.957415e-05
187	0x392ff0ce	0.00016779007
188	0x00000005	7e-45
189	0x39040cc2	0.00012593254
190	0x38df5f67	0.00010651239
191	0x38c60b85	9.4435214e-05
192	0xba310908	-0.000675336
193	0x80000004	-6e-45
194	0xba0cd50b	-0.0005372322
195	0xb5bdd85d	-1.4144567e-06
196	0x32870edb	1.5722824e-08
197	0xb9bcd196	-0.00036014308
198	0xb9ba9da8	-0.00035594148
199	0xb90f8373	-0.00013686511
200	0x80000004	-6e-45
201	0xb997c5cc	-0.00028948335
202	0xb8fe811b	-0.000121357116
203	0xb9d62fec	-0.00040852965
204	0x00000005	7e-45
205	0xb9fddbf8	-0.0004841981
206	0xb918ec99	-0.00014583989
207	0xb904aac3	-0.00012652115
208	0xb9b899f0	-0.00035209907
209	0x2e8962f0	6.2476135e-11
210	0xb9932503	-0.000280656
211	0xb5197f78	-5.7182433e-07
212	0x2f2df2b8	1.582049e-10
213	0xb944eede	-0.00018781002
214	0xb9422c8f	-0.00018517881
215	0xb8960043	-7.152606e-05
216	0x8000000e	-2e-44
217	0xb91e3716	-0.00015088575
218	0xb8862bf3	-6.397804e-05
219	0xb960fba8	-0.00021456054
220	0x80000037	-7.7e-44
221	0xb9857214	-0.00025452732
222	0xb89fcea4	-7.6202006e-05
223	0xb88abbf9	-6.6153654e-05
224	0x3540d519	7.183567e-07
225	0xb4881caf	-2.5352844e-07
226	0x34cfd3aa	3.871076e-07
227	0xb08817a1	-9.902018e-10
228	0x80000038	-7.8e-44
229	0x27d1eb49	5.826425e-15
230	0xb5b2677a	-1.3292149e-06
231	0x297d73d6	5.6277757e-14
232	0x8000002d	-6.3e-44
233	0x352759e7	6.2343173e-07
234	0x0000005f	1.33e-43
235	0xb5892681	-1.0218502e-06
236	0x0000002d	6.3e-44
237	0xb5ab3190	-1.2754917e-06
238	0xb62ea10c	-2.6021762e-06
239	0xb46740b8	-2.1537096e-07
240	0x3988b8e2	0.0002607769
241	0xb5814133	-9.630224e-07
242	0x3946bdfc	0.00018953526
243	0x2f10e2c2	1.3177284e-10
244	0xb2cc6932	-2.3796563e-08
245	0x398ffb57	0.00027462348
246	0x398a7116	0.00026405667
247	0x38f987f7	0.00011898571
248	0x03217584	4.744855e-37
249	0x38b6ec19	8.722413e-05
250	0x391496fc	0.00014170626
251	0x399a1be0	0.00029393937
252	0x8000000f	-2.1e-44
253	0x3978bd38	0.00023721613
254	0x3934dd17	0.000172485
255	0x3919a930	0.00014654244

exp_avg_sq f4 [16, 16]
0	0x3662344b	3.3707063e-06
1	0x30812a8e	9.39808e-10
2	0x3610f40c	2.1599726e-06
3	0x2e40b985	4.382052e-11
4	0x28ed04ff	2.6314452e-14
5	0x3589314d	1.0221644e-06
6	0x358c9773	1.047489e-06
7	0x342fb2d5	1.6363204e-07
8	0x24ae4560	7.5578e-17
9	0x3525d48c	6.1776586e-07
10	0x340fc5fc	1.3389939e-07
11	0x35b7f3f1	1.3705559e-06
12	0x25ab3db9	2.9705596e-16
13	0x35e4affb	1.7038541e-06
14	0x3528b7d0	6.285236e-07
15	0x34ae6ff9	3.2491496e-07
16	0x2c875963	3.8468547e-12
17	0x2526566b	1.4427484e-16
18	0x2c299b2c	2.4102482e-12
19	0x247123ee	5.2288978e-17
20	0x23e7aad2	2.5117415e-17
21	0x22cc6198	5.5397642e-18
22	0x2aa8a97e	2.9960404e-13
23	0x299a9f4f	6.8666095e-14
24	0x21b9004f	1.2536169e-18
25	0x2b86d7dc	9.581186e-13
26	0x281bb602	8.643695e-15
27	0x2afadf78	4.4563984e-13
28	0x21494dd6	6.8204464e-19
29	0x2be5e52d	1.6335038e-12
30	0x28802900	1.4228636e-14
31	0x285a6580	1.212344e-14
32	0x37950e98	1.776898e-05
33	0x30b82cc3	1.3400484e-09
34	0x371fed87	9.532442e-06
35	0x259a6b40	2.6787417e-16
36	0x2ebe9308	8.666318e-11
37	0x37ad010f	2.06237e-05
38	0x37ac6fd8	2.055608e-05
39	0x369f6141	4.749891e-06
40	0x2c3a41d1	2.6468725e-12
41	0x3606963e	2.0055008e-06
42	0x36ee030a	7.0933065e-06
43	0x37d5194e	2.5403362e-05
44	0x288b9f62	1.5501221e-14
45	0x377a0532	1.4902371e-05
46	0x379521e3	1.7777964e-05
47	0x37418cc0	1.1536467e-05
48	0x3792f4a2	1.7518472e-05
49	0x300b2dd1	5.0633014e-10
50	0x37278b83	9.986458e-06
51	0x2e7978ae	5.672323e-11
52	0x2e4ecb6d	4.7019656e-11
53	0x374110a8	1.15075745e-05
54	0x3746e974	1.1856075e-05
55	0x3630879c	2.6304979e-06
56	0x2ba48e38	1.1692374e-12
57	0x362a5449	2.5381034e-06
58	0x36694179	3.4757816e-06
59	0x3779e5fe	1.4895106e-05
60	0x270da5b9	1.965752e-15
61	0x374786ad	1.1892681e-05
62	0x36c8c254	5.9830872e-06
63	0x3694ab93	4.4307176e-06
64	0x3206d081	7.847235e-09
65	0x2d9d314a	1.7870722e-11
66	0x31c42d15	5.709476e-09
67	0x2af73f05	4.3919743e-13
68	0x249617db	6.509254e-17
69	0x2cc340ad	5.549414e-12
70	0x3078050d	9.022905e-10
71	0x2bb14b12	1.2597443e-12
72	0x2407bd6d	2.943391e-17
73	0x308ddb20	1.0321379e-09
74	0x2dfdabc3	2.8839047e-11
75	0x309fbf36	1.1623118e-09
76	0x22aa0cb9	4.6092063e-18
77	0x3077762c	9.002601e-10
78	0x3267bb2e	1.3488529e-08
79	0x32022471	7.575282e-09
80	0x373a8402	1.1117199e-05
81	0x31387782	2.6843456e-09
82	0x36c67470	5.914415e-06
83	0x2e187376	3.466335e-11
84	0x2e7dd62f	5.7715773e-11
85	0x3764763a	1.3617386e-05
86	0x375e9e73	1.3269123e-05
87	0x3653001c	3.1441514e-06
88	0x2c01e8d0	1.846124e-12
89	0x35a2e635	1.213694e-06
90	0x369cf005	4.6771042e-06
91	0x378ac301	1.6541688e-05
92	0x2849ad35	1.11953e-14
93	0x3721f6b3	9.653787e-06
94	0x372c25d6	1.0260808e-05
95	0x36f215f6	7.2147186e-06
96	0x3499e3c6	2.8664198e-07
97	0x1fc4dd73	8.3375586e-20
98	0x344a6608	1.8849835e-07
99	0x297332ec	5.4001007e-14
100	0x28b6b1a0	2.0283092e-14
101	0x32123f4f	8.512713e-09
102	0x330f0eec	3.3308353e-08
103	0x312cf226	2.516694e-09
104	0x28a2e1f3	1.8083603e-14
105	0x33865a64	6.256303e-08
106	0x31ee76d1	6.9402195e-09
107	0x332b3ed4	3.9871182e-08
108	0x240d6e9f	3.06682e-17
109	0x34063725	1.2499784e-07
110	0x329fb83f	1.8593822e-08
111	0x32671632	1.3451016e-08
112	0x2dab8d8a	1.9503305e-11
113	0x243b4dda	4.0615104e-17
114	0x2d5a5a1b	1.2411873e-11
115	0x2373fc16	1.3226438e-17
116	0x23a62be1	1.801634e-17
117	0x24e79631	1.00434715e-16
118	0x2c44b2be	2.7952497e-12
119	0x25e164d4	3.9099602e-16
120	0x258b304f	2.4145391e-16
121	0x2ca3d582	4.6564428e-12
122	0x2b2943ac	6.0134775e-13
123	0x2c82a5e0	3.713238e-12
124	0x1e86e535	1.42826e-20
125	0x2d21aa00	9.189538e-12
126	0x2bccf5f5	1.4563339e-12
127	0x2ba15154	1.1462311e-12
128	0x37957814	1.78181e-05
129	0x31c04140	5.5953535e-09
130	0x371c6e60	9.324023e-06
131	0x2eba11d7	8.46147e-11
132	0x2ed26092	9.566849e-11
133	0x37b0f94c	2.1096923e-05
134	0x37b04201	2.101157e-05
135	0x36a2cb9a	4.8516786e-06
136	0x2c0ebcd2	2.028423e-12
137	0x36068eed	2.005075e-06
138	0x36ddbbdf	6.6081843e-06
139	0x37db9a32	2.6178637e-05
140	0x27af752f	4.869931e-15
141	0x37865ade	1.6016358e-05
142	0x3770b19b	1.4346467e-05
143	0x3723194a	9.721445e-06
144	0x38538bff	5.04367e-05
145	0x31e1a5d6	6.567215e-09
146	0x37ef38bc	2.851744e-05
147	0x2f7717a3	2.2472917e-10
148	0x2f0acec6	1.2624488e-10
149	0x37ff40cb	3.042854e-05
150	0x38078ee1	3.2319575e-05
151	0x36ea35e0	6.9800153e-06
152	0x2c62fcb6	3.2256814e-12
153	0x36f481a1	7.2868575e-06
154	0x371b3c3f	9.252747e-06
155	0x38280367	4.005749e-05
156	0x27bd2023	5.249288e-15
157	0x3809bd44	3.2839613e-05
158	0x378c8d84	1.6755199e-05
159	0x374a1e89	1.2047248e-05
160	0x376e3e37	1.4200391e-05
161	0x30480634	7.276839e-10
162	0x36faca34	7.47412e-06
163	0x2d13e29f	8.4063026e-12
164	0x2e9c6571	7.112078e-11
165	0x3783c355	1.5707375e-05
166	0x3780926b	1.532697e-05
167	0x367208ad	3.606586e-06
168	0x2bc3088f	1.3857959e-12
169	0x35da65bf	1.6271878e-06
170	0x36a54c5b	4.926272e-06
171	0x37a074c7	1.9127865e-05
172	0x27fb6bcc	6.978337e-15
173	0x374aed65	1.2095411e-05
174	0x3712ead1	8.756951e-06
175	0x36d87e05	6.4519722e-06
176	0x3705a073	7.964775e-06
177	0x31021420	1.892893e-09
178	0x368ab859	4.1341814e-06
179	0x2df59529	2.7919516e-11
180	0x2e44b2df	4.472411e-11
181	0x3733618d	1.0691944e-05
182	0x3730da58	1.0541255e-05
183	0x362558ba	2.4638562e-06
184	0x2bdcf603	1.5700222e-12
185	0x3568e226	8.6755824e-07
186	0x3672f175	3.6201357e-06
187	0x375c30b5	1.3124362e-05
188	0x2822ae34	9.030581e-15
189	0x36fda335	7.5589874e-06
190	0x37034291	7.823707e-06
191	0x36b6abb0	5.4440097e-06
192	0x37f2e97e	2.8957376e-05
193	0x29b4b4a8	8.0249446e-14
194	0x37898522	1.6393667e-05
195	0x2eb71a61	8.3265624e-11
196	0x2eaea62a	7.9421206e-11
197	0x37a0e508	1.9180137e-05
198	0x37a6ad2f	1.9869387e-05
199	0x36932b25	4.385964e-06
200	0x2bf9ae5f	1.7740912e-12
201	0x368a992a	4.130551e-06
202	0x36c2775f	5.795547e-06
203	0x37d0cf14	2.489196e-05
204	0x276c1291	3.2761644e-15
205	0x37a5f6d2	1.9784467e-05
206	0x3722ba48	9.699324e-06
207	0x36f2b82d	7.233603e-06
208	0x36f17e0d	7.197034e-06
209	0x2f1e6343	1.4405281e-10
210	0x36894e5e	4.0920413e-06
211	0x2ddd94e0	2.5190905e-11
212	0x2db2e9a1	2.034001e-11
213	0x36a819a9	5.0097774e-06
214	0x36abd9f3	5.1215698e-06
215	0x35995c16	1.1426189e-06
216	0x2b0884d1	4.8501226e-13
217	0x358d21d1	1.051516e-06
218	0x35c9ec97	1.5044524e-06
219	0x36d886c4	6.4529904e-06
220	0x26a5d673	1.1507302e-15
221	0x36aa69f0	5.0787276e-06
222	0x3625a82e	2.468481e-06
223	0x35f6a63c	1.8376809e-06
224	0x34cb80cb	3.7905406e-07
225	0x30f02c9d	1.7474978e-09
226	0x344b9b69	1.8962386e-07
227	0x2df3c732	2.7714362e-11
228	0x22ff587b	6.921157e-18
229	0x27f17514	6.7017874e-15
230	0x34070857	1.2575889e-07
231	0x2c12dace	2.0869309e-12
232	0x21721548	8.2020955e-19
233	0x33b83bc1	8.579037e-08
234	0x25c49528	3.4101652e-16
235	0x33af9e13	8.177826e-08
236	0x259e6375	2.7476026e-16
237	0x344ccb7a	1.9073005e-07
238	0x34096c25	1.2798462e-07
239	0x30994f5b	1.1154769e-09
240	0x379194b8	1.73546e-05
241	0x31fd0870	7.3642283e-09
242	0x371a4bd9	9.196775e-06
243	0x2ed9451b	9.880293e-11
244	0x2ed4fafd	9.685228e-11
245	0x37c28990	2.319066e-05
246	0x37c18abe	2.3072e-05
247	0x36b2c08b	5.3272283e-06
248	0x2c40daae	2.7406233e-12
249	0x35fe9fd0	1.8970986e-06
250	0x3705e702	7.981203e-06
251	0x37f07021	2.8662444e-05
252	0x288d20f6	1.566844e-14
253	0x37875da6	1.6136863e-05
254	0x37a7ef54	2.0019397e-05
255	0x375f774f	1.33196145e-05

exp_avg f4 [16]
0	0x39b9dc33	0.0003545001
1	0x0000000e	2e-44
2	0x399d2432	0.0002997234
3	0xb9eb6c96	-0.00044903596
4	0x33169cd0	3.5067217e-08
5	0x397cff0c	0.00024127605
6	0x3771193d	1.4370596e-05
7	0x9c50a355	-6.903253e-22
8	0x39a80a76	0.0003205125
9	0xba3c027b	-0.00071720005
10	0x399809e1	0.0002899906
11	0x393e0923	0.00018123216
12	0xba151dfc	-0.0005688367
13	0xb99b9623	-0.00029675764
14	0xb4ac8fc8	-3.214211e-07
15	0x39a8a8fb	0.00032169357

exp_avg_sq f4 [16]
0	0x362859a0	2.508612e-06
1	0x2be61d8f	1.6350687e-12
2	0x37eed58d	2.8471253e-05
3	0x37a4f2a7	1.9663317e-05
4	0x30cc2c12	1.4855479e-09
5	0x3793c50f	1.7615528e-05
6	0x33d72d15	1.0019918e-07
7	0x2d0cadb3	7.996648e-12
8	0x37f5eb86	2.931595e-05
9	0x3868aae8	5.547228e-05
10	0x37b5e66e	2.1684184e-05
11	0x37699191	1.3921775e-05
12	0x380a5831	3.29839e-05
13	0x370cd06f	8.39318e-06
14	0x350dfd7c	5.289546e-07
15	0x37fd9f13	3.0234025e-05

exp_avg f4 [1, 16]
0	0x3ab3c685	0.001371578
1	0x80000019	-3.5e-44
2	0x3a049bd9	0.00050586235
3	0x3b0aa9e2	0.0021158387
4	0xb436f0d4	-1.7037684e-07
5	0x39d6c96b	0.0004096733
6	0x38558d47	5.0914732e-05
7	0x251df551	1.3700696e-16
8	0x3a0511b8	0.00050761877
9	0x3b16dc05	0.0023019325
10	0x3a55fdb2	0.0008163109
11	0x39d4fa33	0.00040622204
12	0x3ad0bda2	0.0015925656
13	0x3b0406f7	0.0020145753
14	0xb2e5f609	-2.6770993e-08
15	0x3a26eb96	0.00063675025

exp_avg_sq f4 [1, 16]
0	0x3855fee2	5.1020535e-05
1	0x2bbf21fe	1.3580801e-12
2	0x38e194fe	0.00010756588
3	0x39940b2c	0.00028237083
4	0x35123f79	5.4481603e-07
5	0x389d184c	7.490869e-05
6	0x35969060	1.121789e-06
7	0x2da82ce9	1.9119333e-11
8	0x38e8dbca	0.00011103561
9	0x39b0b873	0.0003370676
10	0x39a69bc7	0.0003177805
11	0x3887ba6b	6.472025e-05
12	0x39331d5b	0.00017081706
13	0x39a81a63	0.00032063117
14	0x361b447a	2.3136658e-06
15	0x394d53b4	0.00019581505
