water/1t6xsi8e/checkpoints/epoch=142-step=142.ckpt (torch, 11369 bytes, 16 tensors)

layers.0.weight f4 [16, 8]
00000000: 709d 6a39 e420 41bc d937 2b3c 8133 22bc
00000010: 5247 89b7 55ca 2039 b26f c1b7 ed21 c3bb
00000020: 7146 0a39 fbf0 d1bd 5995 043e 1799 b23d
00000030: 4273 f9ba 1b64 e0b5 227a 2e38 098f 023f
00000040: da62 5639 b87e de3d f72f 673e cb0e bcbd
00000050: dc51 0cbb 8945 b9b8 3c00 aeb8 a2c2 29bd
00000060: 0027 10b8 b99f 09bd f2b2 083d 9bf3 25bd
00000070: 405e 64b9 7818 2a38 369b 0a38 985a fbbe
00000080: 29e9 e9b8 3de0 443e bd12 a1be 672c d93c
00000090: f567 61b9 30d8 95b8 9c0a 11ba 072a 99be
000000a0: 6e66 a537 abce ad3e a9a7 91bd 4a7d 163e
000000b0: 7570 27b8 65a4 aa38 139c d537 e012 82bc
000000c0: a928 b837 8a57 d33d c1ec d2bd 9256 d03d
000000d0: b795 a0b8 55a3 9a38 0fb8 5739 4ba0 aabd
000000e0: 2903 a9b9 4345 e43e 05e6 323e adf2 a73e
000000f0: 282c 3638 94fc be37 3246 1f3a 59b8 05bf
00000100: cdbd 20ba 07e7 ac3e cfdc df3d 5f8d cf3e
00000110: 5d00 5a39 7030 4037 6837 58b7 344b 88be
00000120: 4117 0039 d4af 4bbc 8705 c53c 55c4 073c
00000130: 5493 d339 2eb3 43b8 f4e7 d338 c2c2 3ebe
00000140: dae4 d8b9 93a9 9d3e b16f 533c f68b 7f3e
00000150: 16ac c5ba 135a cdb9 4738 63b9 3b98 eebe
00000160: b809 90ba 7d4f afbc a15b d8be 00b6 cf3e
00000170: d5e7 11ba 3cd4 1ab9 00cf 1e34 fec4 bd3d
00000180: d758 0a3a 2925 023f 5f75 21be 7a11 b23e
00000190: 1b02 96b8 8cbb 30b6 6603 a2b8 3415 be3c
000001a0: 264b 21b7 5c60 d4bc e741 8b3d aeb7 8f3d
000001b0: 2c10 c0b6 9030 51b5 80fb aa38 f8d2 ebbc
000001c0: 1d61 bbb6 2e14 b53c a896 b5bc 02e3 ae3c
000001d0: 62b3 7738 59d8 5b39 ce12 21b8 cbe5 debc
000001e0: 9c8c aab8 1914 07bd 45d2 693d adb8 13bd
000001f0: fcec 01b6 82e4 1838 0463 e137 aeae 2a3d
0.00022374629 -0.011787627 0.010450327 -0.009899975 -1.6364884e-05 0.00015334164 -2.3059405e-05 -0.005954972
0.00013186947 -0.102510415 0.12947597 0.08720606 -0.0019031542 -1.6718435e-06 4.1598578e-05 0.50999504
0.00020445455 0.108640134 0.22576891 -0.09182509 -0.0021411097 -8.834439e-05 -8.29701e-05 -0.041445382
-3.4368597e-05 -0.03359959 0.03337378 -0.040515523 -0.00021778885 4.0553947e-05 3.3046315e-05 -0.49092555
-0.00011153735 0.19226165 -0.3145961 0.02651043 -0.00021496399 -7.145142e-05 -0.0005532892 -0.29914877
1.971723e-05 0.33946738 -0.07112057 0.14696231 -3.9920636e-05 8.1368526e-05 2.5464256e-05 -0.01587814
2.1953443e-05 0.10319431 -0.102990635 0.10172762 -7.657281e-05 7.373715e-05 0.00020572565 -0.08331355
-0.00032236546 0.44584092 0.17470558 0.32802334 4.3433305e-05 2.276738e-05 0.00060758286 -0.5223442
-0.0006131798 0.3377001 0.10930788 0.40537545 0.00020790235 1.14553695e-05 -1.28875035e-05 -0.26619875
0.00012215694 -0.012432057 0.024050487 0.008286555 0.00040354824 -4.6658497e-05 0.00010104469 -0.18628982
-0.00041369238 0.30793437 0.012905047 0.24955735 -0.0015081193 -0.00039167757 -0.00021669372 -0.46600518
-0.0010989225 -0.021400208 -0.42257407 0.40568542 -0.00055658567 -0.00014765648 1.4790203e-07 0.09266089
0.00052775204 0.5083795 -0.1576743 0.3477896 -7.1529495e-05 -2.633521e-06 -7.725395e-05 0.02320347
-9.613845e-06 -0.025924854 0.06799679 0.07017456 -5.7239286e-06 -7.7929235e-07 8.153077e-05 -0.028787121
-5.5843398e-06 0.022104349 -0.022166565 0.02134848 5.9056452e-05 0.00020966063 -3.8402904e-05 -0.027209183
-8.132422e-05 -0.03297815 0.057085294 -0.036064792 -1.936044e-06 3.645244e-05 2.6868198e-05 0.041670494

layers.0.bias f4 [16]
00000000: 7fe5 2abc cff5 a03e 6d64 a63d 8d6e 02be
00000010: 2580 c9bb 2947 693e 71b7 d03d c2e6 483e
00000020: c025 72be 4fc4 4fbc a12e 8c3e 1a80 ad3e
00000030: 16d8 f23e 5cbf 02be c28e 963c 4a6b 23bd
-0.010430693 0.31437537 0.081246234 -0.12737484 -0.006149309 0.22781052 0.10191239 0.19619277
-0.23647213 -0.012681081 0.27379325 0.33886796 0.47430485 -0.1276831 0.01837862 -0.03989724

layers.2.weight f4 [16, 16]
00000000: 5cfd d738 dc33 34be 6f04 56be 726e b635
00000010: 562f 453e 7fcc a2bd f67b 97b8 1923 d1bd
00000020: fbe9 0a3e bc17 00b9 44d8 49be f3c9 44be
00000030: 9fdf 2c3e da0b 1a38 0dfe 7ab8 5ffe 1739
00000040: 2f01 703c 22de 233e 9c7a f0bd 4d95 bfbe
00000050: 030c 7d3e d420 b9bd 6e9a 093d 65df 973e
00000060: 45e5 333e 55bd 2abe fcba d63e 5c08 ccbd
00000070: e519 bfbd 8fcc 77bc 9a83 0abd 7b44 7539
00000080: ded0 003d ca0d afbe f66b 883e cef5 c1be
00000090: 1d81 8d3c c99b 8e3e 8044 ff3c 498f 2a3e
000000a0: 6be3 ab3e 9386 2dbe e913 d83e e072 913d
000000b0: 5631 023e e42e 9fbc 3493 0ebd f127 16ba
000000c0: 1438 b3bc 17e6 e83d 6857 783e aded 2a3a
000000d0: 711b 93be 0ab8 dd3e f394 f93c 0981 3ebe
000000e0: 0e92 eebe 964b e33c 631b c2be c7ae 13bc
000000f0: 6a8f 623e 46c6 863c 702e 453b 1f23 b638
00000100: 074f 6abc 47fa ee3d 38e9 943d 4ced 56b9
00000110: 1a11 d9be ea87 173c 22f8 053d 6b6b 57be
00000120: 77b9 c7be 5858 9c3c 4f90 3dbe 9674 913e
00000130: 857e d63d 5cb5 833c 50b9 5c3b f24a b2b7
00000140: dcd9 88bc 9e11 d83e 5160 ddbd 617a 053d
00000150: 550a 8cbe 68d3 213e 56d4 023d d330 bdbe
00000160: 1d07 6cbe 3374 a43c 962b a9be a70d ba3d
00000170: 18ca 953e 6cb7 bd3c 54c0 073c 3572 38b8
00000180: f975 cf3c b9fa 16be 6788 00be 578a d1be
00000190: d04b cb3e 6587 af3e 2a4e 0a3d 3fd3 8f3e
000001a0: 3c67 29bd dac0 28be 8d9f 413d 6641 31bd
000001b0: 4aca 223e eca6 58bc 0694 c8bc 9795 7339
000001c0: 13bc 4bb9 a0f0 c1bc b070 7536 4ef1 9cb7
000001d0: 2a73 2fb8 ee84 77bc 4fd4 60b9 c3f6 33b9
000001e0: fe8e 60b8 34bd aa38 f3b1 3539 98a9 e3bc
000001f0: a009 b4bc fe93 9236 7480 df36 f3c8 9bb8
00000200: eaf4 3e3c 37f1 69be 33f2 1b3e 2756 c0be
00000210: 6440 b03c 98c2 ac3d b68b ee3c d370 c13e
00000220: b78d d63e 3eb0 22be fa22 00bd 6a79 563d
00000230: 2ff9 e83d 3d05 0cbc cf51 cabc aacb e5b9
00000240: 4fca a1bc b872 8c3e 2667 28bd a802 c13e
00000250: f849 c9be 8dcb 8a3e 876d 10bd 327e 72bd
00000260: ac6d 84be 90b5 2c3e daec b1be 1dad c13e
00000270: 6cf6 8a3e fd34 c03c a9bf 0a3d fa3f bd39
00000280: c7eb a6bc 5bd2 2a3d 9423 28be ce0e f2bd
00000290: da48 91be 89d7 58bd 06cf e73c 4d28 acbe
000002a0: bf8d 3abd fec4 a5bc 1807 64be d341 ce3e
000002b0: 610f 5e3e c03c 9e3c 68c3 b43c e506 5f38
000002c0: ce07 f2bc 96ea 803e 0c85 4d3d bfa5 c23e
000002d0: fce2 9f36 fae0 4c3e 2f14 12bd 7f43 933c
000002e0: a0f5 0ebe 9452 2e3e c728 583c 199c 7e3e
000002f0: 5a3d 633e 0be9 933c ea80 0e3d 520e f739
00000300: c996 f5bc cef0 143d 116c f63d 77c3 bf3e
00000310: ec26 68be 0454 a63d cb7f 02bd 7ef2 2abe
00000320: 34a8 1a3d 62d1 2c3e c74d 06be b627 c43e
00000330: 228e 483d 0f16 cc3c a804 093d 198e 0539
00000340: 27fb ec38 e3ba 3d3e 5f39 453e fe6f 57b8
00000350: 7afb 13b7 adbe 98be 328d 6137 3a22 dbb8
00000360: 2d8a 83be 99f7 c036 e09a 89b8 f089 c2bd
00000370: c1e0 56be c271 00b9 4fe5 6339 dc0e be38
00000380: bce1 7039 75b6 2fbe d6c5 83be 1956 8e3e
00000390: 2ff5 343d 786a 6ebe 7fc4 223e 1991 f73d
000003a0: e428 683e f8e6 2f3e 29ad 283e 266e 01be
000003b0: b727 a8bd 5d90 ab37 686a b53c abc7 3ab8
000003c0: 9a89 e93c bf52 7ebe b27e 2bbe 124d c3be
000003d0: f750 1fbd 719b ce3e 4c8e f03c 2edd 823d
000003e0: 8597 c53e 7710 28be a280 bb3e dce8 c8bd
000003f0: 266f 0e3e 77ed 85bc 55fb 0cbd 8e50 9cb9
0.00010299191 -0.17597908 -0.20900129 1.35922e-06 0.19256338 -0.07949161 -7.2233306e-05 -0.102117725
0.13565819 -0.00012215873 -0.19711405 -0.19217663 0.1688218 3.67275e-05 -5.9841248e-05 0.00014495243
0.01464872 0.16002706 -0.11742136 -0.37418595 0.24711613 -0.090394646 0.03359454 0.29662624
0.17567928 -0.16673787 0.41939533 -0.09962532 -0.09331111 -0.015124454 -0.03381691 0.00023390532
0.03144919 -0.34190208 0.26644868 -0.37882847 0.01727348 0.2785323 0.031160593 0.16656221
0.33571944 -0.16945867 0.4220269 0.07101989 0.12714133 -0.019431539 -0.034808353 -0.00057279976
-0.021877326 0.11372011 0.24252093 0.0006520402 -0.28731874 0.43304473 0.030466532 -0.1860391
-0.46595806 0.027746003 -0.3791152 -0.009013838 0.2212502 0.016451966 0.0030087493 8.684978e-05
-0.014301068 0.1166883 0.072710454 -0.0002049703 -0.4239586 0.009248713 0.03270734 -0.2103707
-0.39008686 0.019085094 -0.1851208 0.2840926 0.104733504 0.01607769 0.003367979 -2.1254153e-05
-0.016705446 0.4220094 -0.108093865 0.032587413 -0.27351633 0.15803301 0.03194078 -0.36951312
-0.23049589 0.02007494 -0.33041066 0.09084635 0.29255748 0.023158751 0.008285601 -4.3975382e-05
0.025324808 -0.1474408 -0.12552033 -0.40925857 0.39706278 0.34282985 0.03376595 0.28090855
-0.041358218 -0.16479817 0.0472713 -0.04327526 0.1589748 -0.013223391 -0.024484646 0.00023230012
-0.00019429652 -0.02367431 3.6573438e-06 -1.8709015e-05 -4.1830506e-05 -0.0151073765 -0.00021441396 -0.00017162696
-5.3538934e-05 8.1414735e-05 0.00017327796 -0.02779083 -0.021977246 4.3683676e-06 6.660872e-06 -7.428406e-05
0.011655072 -0.22845922 0.1522911 -0.3756573 0.021515079 0.08435553 0.029119354 0.3778139
0.41904995 -0.15887544 -0.031283356 0.052361883 0.11375653 -0.008546171 -0.024697213 -0.00043830025
-0.019749789 0.27431273 -0.041113995 0.3769734 -0.39314246 0.27108422 -0.035260703 -0.05920238
-0.25864923 0.16866136 -0.34751016 0.37827387 0.2714113 0.023462767 0.033874188 0.00036096555
-0.0203761 0.041704517 -0.16419822 -0.1181923 -0.28375894 -0.052939925 0.028296959 -0.33624497
-0.045545336 -0.020235535 -0.22268331 0.40284595 0.21685554 0.019316077 0.022065833 5.3173764e-05
-0.029544737 0.25178975 0.05017571 0.3801708 4.7649937e-06 0.20007697 -0.03566378 0.01797652
-0.13960886 0.17023689 0.013193316 0.24864234 0.22191373 0.01805546 0.03479091 0.0004712218
-0.029979127 0.03636246 0.12032331 0.37453815 -0.22671098 0.081214935 -0.031860154 -0.16694066
0.037758067 0.16876748 -0.13115607 0.38311547 0.048963673 0.024912862 0.033451706 0.00012736804
0.00011300138 0.18528323 0.19260167 -5.1364295e-05 -8.820434e-06 -0.29832974 1.344392e-05 -0.00010449109
-0.25691357 5.75087e-06 -6.561517e-05 -0.09498966 -0.20984174 -0.0001224941 0.00021733831 9.062674e-05
0.00022972276 -0.17159446 -0.25736874 0.27800062 0.044179138 -0.23282802 0.1589527 0.12088222
0.22671849 0.17177951 0.16472305 -0.12639675 -0.082107 2.0452013e-05 0.022145465 -4.453181e-05
0.028507996 -0.24836253 -0.16747549 -0.38144737 -0.038895573 0.40352967 0.029364727 0.06389843
0.38592163 -0.16412531 0.36621577 -0.098100394 0.13909587 -0.016348584 -0.034419376 -0.00029814657

layers.2.bias f4 [16]
00000000: 9e64 bcbd 2f2c 5b3e d762 b6bd abc2 913e
00000010: 280e b23e 6feb 8a3e 0bc5 3cbe 0ad6 6fbc
00000020: 8ff1 eb3d c968 b63e da42 633d 692b 2c3e
00000030: 2635 273e 3097 ce3c 34c4 b3bd 71dd 0cbc
-0.09198879 0.21403573 -0.08905571 0.28468832 0.34776425 0.27132747 -0.18434541 -0.014638433
0.11520683 0.3562682 0.055483676 0.16813435 0.16328868 0.025218576 -0.08777657 -0.008597718

layers.4.weight f4 [1, 16]
00000000: 432f 073e d553 3abe b97b e1be b6ba b43e
00000010: f0f2 683e 016d 883e de73 9bbe c5e6 873b
00000020: 8501 12be 3d7b 603e af56 a03e b55d c53e
00000030: 41d4 ba3e e824 4fbe f7a2 9f3e e646 b9be
0.13201623 -0.18196042 -0.44039705 0.352987 0.22748923 0.26645663 -0.30361837 0.004147383
-0.14258392 0.21922012 0.31316134 0.38548055 0.36490062 -0.20228922 0.3117902 -0.36186904

cel.weight f4 [2]
00000000: 0000 803f 5c8f e23f
1.0 1.77

exp_avg f4 [16, 8]
00000000: e04c c331 3a15 26b4 d91d 2134 3985 1cb4
00000010: 372a 97ae f4b2 0f31 4183 5a31 67d6 c2b3
00000020: 82aa 1031 368c d937 3149 d7b7 5c76 e937
00000030: d29d 4bb3 4257 a2ac 7885 15b0 96fa afb9
00000040: ed5a ee30 0034 9235 fd56 1736 e9c4 75b5
00000050: 90dd 5bb3 147c 1930 6e5e 86b0 868d d9b4
00000060: 590e b02f 8fdd 093a b5dd 09ba ead8 093a
00000070: 61af b2b0 4c9b bcae 51ec a9b0 e02f 8c39
00000080: 6710 0fb1 ce09 26b8 44e8 2038 a0fd 2cb8
00000090: 91bf c8b0 ef6b 89b0 d3c0 dfb1 b5f6 7039
000000a0: b24e 45b0 acb5 a0b8 6556 a638 3bbf a4b8
000000b0: 46bb 1930 28fb 242f ffe6 8131 6dc7 d1b8
000000c0: 3171 b8ae 7a02 e037 1afe dfb7 19e2 df37
000000d0: 6059 cbaf af17 0aaf 723b 5e2f 6c7e 8537
000000e0: d941 d9b1 8a66 a2b8 206a af38 14df a4b8
000000f0: 59cb 10b0 94be dcaf 789c 0b31 7120 7839
00000100: 9865 bfb1 8ff3 14b9 80a3 1939 e13d 14b9
00000110: c930 e530 df75 1530 11d7 adae 655c 9339
00000120: 234b e32f 631a 0939 2bfb 08b9 2152 0939
00000130: 1cef e431 3626 0830 9429 9e31 d535 e438
00000140: 08e3 e5b1 2052 27b9 60af 2a39 d4ee 27b9
00000150: 9818 30b3 32c9 ad31 ae0e bdb0 14f4 9239
00000160: 8db3 12b3 f512 0f39 c1ba 13b9 6d8d 1339
00000170: b9e2 deb1 a284 3932 6512 dd2d 21e2 44b9
00000180: 4b56 9fb0 90e1 c0b7 de4c de37 465a ceb7
00000190: 7873 f0af 2efa 822d a939 88b0 f463 0fb9
000001a0: 7232 14b0 842c 89b4 6f15 3635 f5a7 3e35
000001b0: 4991 962c e4c5 0aae 16fb 35b0 75b2 97b4
000001c0: 52ad 832e dd47 08b8 b050 0838 1b61 08b8
000001d0: 8d92 ab2e 7103 c42f 3e41 9d2f 05eb 13b7
000001e0: b545 1caf 95de a5b4 8ea0 1435 ccbc b6b4
000001f0: 9797 312b 62bd 8530 6b1f 8230 5f6b cc34
5.6839866e-09 -1.5467677e-07 1.5005152e-07 -1.4577098e-07 -6.874184e-11 2.0910962e-09 3.1797784e-09 -9.0728285e-08
2.105168e-09 2.5933707e-05 -2.566408e-05 2.783088e-05 -4.7408157e-08 -4.6140045e-12 -5.4395555e-10 -0.00033565302
1.7342622e-09 1.0892982e-06 2.2551387e-06 -9.1556154e-07 -5.119142e-08 5.58374e-10 -9.776622e-10 -4.0522372e-07
3.2024408e-10 0.000525915 -0.0005259172 0.0005258458 -1.300105e-09 -8.5768365e-11 -1.2363534e-09 0.0002673855
-2.0818562e-09 -3.9586615e-05 3.8363287e-05 -4.1244202e-05 -1.4606362e-09 -9.998739e-10 -6.5120758e-09 0.00022980089
-7.1780015e-10 -7.6632336e-05 7.931589e-05 -7.855749e-05 5.592721e-10 1.5004942e-10 3.7806553e-09 -0.000100030426
-8.387458e-11 2.6704034e-05 -2.6701997e-05 2.6688956e-05 -3.698899e-10 -1.2559441e-10 2.0211902e-10 1.5913705e-05
-6.323017e-09 -7.743861e-05 8.3644176e-05 -7.861681e-05 -5.267587e-10 -4.015318e-10 2.0316104e-09 0.00023663208
-5.5703815e-09 -0.00014205113 0.00014652126 -0.00014137432 1.6675809e-09 5.437339e-10 -7.9053326e-11 0.00028106864
4.1344447e-10 0.00013075168 -0.00013063538 0.00013095934 6.662857e-09 4.9530813e-10 4.603132e-09 0.00010881914
-6.6905876e-09 -0.00015956955 0.00016277796 -0.00016015331 -4.100056e-08 5.057836e-09 -1.3755732e-09 0.00028029142
-3.4156574e-08 0.00013644605 -0.00014088584 0.00014071698 -6.4868257e-09 1.07985745e-08 2.513296e-11 -0.00018776256
-1.1593299e-09 -2.299322e-05 2.6500256e-05 -2.459915e-05 -4.373779e-10 1.4890391e-11 -9.91169e-10 -0.00013674778
-5.3913773e-10 -2.5550628e-07 6.7831473e-07 7.1024925e-07 4.2793863e-12 -3.155333e-11 -6.620423e-10 -2.8255786e-07
5.987978e-11 -3.2491855e-05 3.2500073e-05 -3.2515363e-05 7.8022123e-11 3.5654638e-10 2.860449e-10 -8.8166025e-06
-1.4212882e-10 -3.0895595e-07 5.5367934e-07 -3.403751e-07 6.3093405e-13 9.73085e-10 9.467674e-10 3.8076084e-07

exp_avg_sq f4 [16, 8]
00000000: 95b8 ff29 62e1 d12a ae68 872a acc5 782a
00000010: 63bf 5726 00f1 7229 13f5 d429 c56c 5a2a
00000020: 56ab 6929 ac03 6e3a b603 6e3a 6f03 6e3a
00000030: e84d a32a 1f69 8323 b036 9a28 d7e5 b53a
00000040: a064 8929 e167 4036 e25f 4036 1963 4036
00000050: 60b1 a62a 971d 1e29 8e6c d428 8537 3b38
00000060: 6bef 1528 888f 3b37 888f 3b37 7d8f 3b37
00000070: e97d 9329 280c 9227 9365 3229 8cf2 1e38
00000080: 7cc7 6129 a17c 373a 117c 373a 637d 373a
00000090: c41c 9029 5996 cd28 131a 232a fcb3 a03a
000000a0: 53ff a328 08b6 203a 0eb7 203a c5b6 203a
000000b0: 3100 9b28 425e 7728 e6be dd29 ebe0 193a
000000c0: 22c0 d126 31ee 3830 feed 3830 89f8 3830
000000d0: af7c 6228 8155 8728 3620 a629 0991 3730
000000e0: 349e 082a 3daf 7139 29b3 7139 01b0 7139
000000f0: b957 9928 53ad 1c28 6d6f 482a 95de d03a
00000100: c837 302a 0b21 5439 7a22 5439 d120 5439
00000110: 8c2f 8b29 b409 2f28 23c9 5126 caa9 9a3b
00000120: b10f 0329 7f2f 9d34 942f 9d34 552f 9d34
00000130: 2f7b 102a 47c8 9728 ced3 ea29 f4a8 1935
00000140: af87 112a 8e6c 6a3a 366e 6a3a d26c 6a3a
00000150: 165e 9d2a d54b 652a bcf0 9129 6598 283b
00000160: 2bb2 962a ae6f 513a ac6d 513a c36d 513a
00000170: 6da5 232a f3f5 762a e295 fb24 c5f7 fa3b
00000180: d5f0 562a 8c46 1d39 7d49 1d39 ea47 1d39
00000190: 5db3 5a28 db01 8124 a1ed d028 f7b5 713a
000001a0: ce0a 2e28 ccde b130 8bc0 b130 1933 b230
000001b0: f518 6c24 83af 2f25 9f00 2129 01bf 1331
000001c0: ac1b f625 698a 432f da99 432f 36a7 432f
000001d0: ef4d f827 cbc6 a329 5c64 1328 7acf c42e
000001e0: 0a0f 7828 9f99 2e2f a06a 2e2f 0f81 2e2f
000001f0: a170 ed22 7b2b bc28 2fe4 b728 d34c e22f
1.1356295e-13 3.728225e-13 2.4053453e-13 2.2095406e-13 7.4852487e-16 5.394383e-14 9.457205e-14 1.9400027e-13
5.1885003e-14 0.00090795266 0.00090795325 0.0009079491 2.9008675e-13 1.4247569e-17 1.7121152e-14 0.0013877702
6.101478e-14 2.8670695e-06 2.866604e-06 2.8667912e-06 2.9610602e-13 3.5108713e-14 2.3583806e-14 4.463598e-05
8.323077e-15 1.1179487e-05 1.1179487e-05 1.1179477e-05 6.549953e-14 4.053632e-15 3.961204e-14 3.7896025e-05
5.013306e-14 0.0006999467 0.00069993833 0.000699958 6.399875e-14 2.2824775e-14 1.4486355e-13 0.0012260671
1.8207365e-14 0.00061306404 0.0006130793 0.00061307504 1.720854e-14 1.3731693e-14 9.847487e-14 0.0005870002
1.4554366e-15 6.72773e-10 6.727702e-10 6.7292e-10 1.2572557e-14 1.5025092e-14 7.3774686e-14 6.678112e-10
1.2134114e-13 0.00023048832 0.00023050293 0.00023049118 1.7024456e-14 8.697323e-15 1.7802227e-13 0.0015935475
1.5651293e-13 0.00020230205 0.00020230739 0.0002023012 6.181088e-14 9.7165555e-15 7.278403e-16 0.0047199475
2.9101453e-14 2.9278087e-07 2.9278146e-07 2.9277967e-07 1.2832507e-13 1.6851224e-14 1.042843e-13 5.72428e-07
1.2925662e-13 0.00089425675 0.00089428143 0.0008942607 2.7954088e-13 2.0365595e-13 6.481054e-14 0.00257256
2.6768981e-13 0.0007989359 0.00079890597 0.0007989073 1.4534702e-13 2.193452e-13 1.0910781e-16 0.007658931
1.9090574e-13 0.00014998968 0.00015000063 0.00014999477 1.2140324e-14 5.5947975e-17 2.3195694e-14 0.0009220535
9.661283e-15 1.2941768e-09 1.2933169e-09 1.2965727e-09 5.1195482e-17 1.5238296e-16 3.574972e-14 2.1499889e-09
4.269295e-16 1.778432e-10 1.7789806e-10 1.7794552e-10 6.8918323e-15 7.273139e-14 8.181901e-15 8.949903e-11
1.3770027e-14 1.5879785e-10 1.5863089e-10 1.5871059e-10 6.435823e-18 2.089105e-14 2.041604e-14 4.1163747e-10

exp_avg f4 [16]
00000000: b5f8 17b4 2284 fc37 1ddd 5a35 9e9e 093a
00000010: fc5b 2eb8 2d0d a3b8 f6e7 df37 f9a2 a7b8
00000020: d7f8 1ab9 be19 0939 b6ad 27b9 0dda 1239
00000030: 64bd c3b7 518c abb5 635e 08b8 9ba0 cbb4
-1.415345e-07 3.010227e-05 8.153309e-07 0.0005249771 -4.15705e-05 -7.7749e-05 2.6691687e-05 -7.9935366e-05
-0.00014779285 0.00013074928 -0.00015991073 0.00014004875 -2.3334003e-05 -1.278133e-06 -3.251283e-05 -3.7928552e-07

exp_avg_sq f4 [16]
00000000: e353 9a2a 1b03 6e3a 4267 4036 cd8e 3b37
00000010: 8a7d 373a 73b6 203a a0f0 3830 d3b0 7139
00000020: e522 5439 7d2f 9d34 b36c 6a3a 116e 513a
00000030: d746 1d39 5098 b130 5c73 432f c47f 2e2f
2.7414103e-13 0.0009079442 2.8670333e-06 1.1179317e-05 0.0006999603 0.00061307027 6.728076e-10 0.00023049423
0.00020230895 2.927808e-07 0.0008942589 0.00079891185 0.00014999077 1.2921735e-09 1.777613e-10 1.5870599e-10

exp_avg f4 [16, 16]
00000000: 4c59 7030 7b58 f2b5 a368 0cb6 eca4 8d2b
00000010: 8755 0136 7562 54b5 184c 89b0 1194 88b5
00000020: 1a57 b635 c46e e2af 6525 04b6 06a2 00b6
00000030: 7aa0 e335 b308 1d30 f24c 8fb1 7614 b1b0
00000040: 5ac4 5a34 432e 4238 2b92 9db5 88c4 2f38
00000050: 9f38 59b8 0746 89b8 e410 91b6 3fa7 a9b8
00000060: f14f 28b8 70de 0437 c0c9 a4b8 2af8 c8b8
00000070: 7e13 01b9 742d 3cb4 8bfe 5335 b8dc 7330
00000080: 0ab6 ab34 e6c6 dc38 6ff1 3236 e542 e038
00000090: 7457 0ab9 1b16 21b9 0976 37b7 5511 54b9
000000a0: 7b89 ceb8 dc51 b537 8dbc 4eb9 52d0 6fb9
000000b0: ff69 9ab9 2c9a 5cb4 b1e8 0836 bd49 8731
000000c0: 01f6 85b4 4b53 c3b8 55e8 2236 6958 9331
000000d0: 8995 2f34 df3e 53b8 4c9e ed38 ce71 9337
000000e0: 7f91 bb36 433e 3136 81d0 0337 fd95 e7b8
000000f0: 8491 eeb8 920d 3f34 807b a436 578b 1cb1
00000100: cf50 52b4 aec4 79b8 c4b0 4335 7976 7bb1
00000110: 1cf8 3eb6 6734 16b8 927b 9938 10bc 2137
00000120: 486b 1a36 f0fe ee35 ad90 a236 591c 91b8
00000130: b910 9db8 d69b 4534 b82a 5536 cd18 7fb0
00000140: 7712 6cb4 9456 8db8 953f 91b5 2fb5 d334
00000150: 330f 4fb5 d520 29b8 d09b b338 9c18 3337
00000160: 2f96 b036 03ea 0736 2305 ac36 7722 afb8
00000170: 3513 b4b8 778b 8a34 c381 7a36 3689 ccae
00000180: cffd 9734 49d1 9838 8dc9 a8b5 c87b 9638
00000190: c2d3 b5b8 a8ac d9b8 520b f9b6 27ce 0fb9
000001a0: 1c74 93b8 d509 7137 d968 10b9 ab66 25b9
000001b0: fbf9 52b9 ccb2 23b4 0b7b be35 8542 1430
000001c0: 92bf 00b1 0d3c 89b4 f5a2 5f2e 5b65 202d
000001d0: 25b9 8f2e 3956 37b4 ecce cbb0 1b30 d3ae
000001e0: 40d4 81af 8c37 0931 320e f92f 0e18 9db4
000001f0: d266 77b4 263f 88ae 39d7 dd2d e24e 07b1
00000200: 528b 3434 98c7 0a38 9c89 cc35 d841 0538
00000210: d554 31b8 afd7 4db8 c7bf 61b6 31df 81b8
00000220: 5716 f0b7 7a6f c536 c8a6 88b8 36bb 97b8
00000230: 3815 c3b8 0a44 e6b3 0a02 2a35 8687 d1b0
00000240: acc9 82b4 9c69 59b8 2007 ddb4 3d49 5bb8
00000250: e276 8338 af46 ac38 58d1 b036 5704 d638
00000260: e71f 4c38 ea39 26b7 6483 cd38 4ab4 fc38
00000270: bf68 2039 6e86 8d34 2651 82b5 a5e0 47b0
00000280: 0101 85b4 be99 abb8 6d54 ddb5 310d 3c36
00000290: e048 14b7 ba43 93b8 3dc9 cb38 9e0f 0436
000002a0: 6330 3d36 f17c 0737 2f04 bab6 c7ad 04b9
000002b0: 1e88 14b9 883a 6534 7d16 8cb6 7fd0 f2ae
000002c0: c3bb a3b4 8156 c4b8 7590 0635 e232 c7b8
000002d0: e476 f638 1633 1539 2d9c 1f37 a31d 3e39
000002e0: b4b4 ba38 0629 9db7 5ae7 3b39 a9b4 5a39
000002f0: 9742 8c39 ac93 4d34 a52f eeb5 5c33 8cb1
00000300: eee9 a9b4 bf45 beb8 8579 a135 3322 bcb8
00000310: 9f12 e438 79c3 0b39 da59 1737 00ab 3139
00000320: 42f0 b338 3325 94b7 2aff 2f39 ca18 5039
00000330: 8a9e 8339 f75c 8e34 e278 e1b5 36a7 c1b1
00000340: a23f 0f31 4702 fc35 e556 0136 f54e 17b0
00000350: 3c55 88ae 15ef 47b6 653b fa2e 8461 0931
00000360: f77d 2cb6 801a 26af 0b03 7130 ea4a 78b5
00000370: f6c4 0ab6 b23b e930 3967 b730 2861 0fb0
00000380: de37 8cb1 5479 04b5 9be1 2cb6 1065 9db8
00000390: ae65 02b9 334c b9b8 bd70 f8b7 d840 56b9
000003a0: ed23 d5b8 2c88 8db7 9bfb 4ab9 3e2b c9b8
000003b0: f2b9 1cb9 59bc 7f31 4cfc 5cb7 5c3f cb31
000003c0: 9808 a334 63ea b438 ec3e e1b5 713d b638
000003d0: 7a0c e4b8 7857 02b9 b52a 16b7 7ead 2eb9
000003e0: 970d a7b8 4ca7 9237 e951 29b9 c68b 46b9
000003f0: 131e 7db9 d71b 45b4 fcde de35 0f01 e1b1
8.743839e-10 -1.8056156e-06 -2.0922532e-06 1.0064428e-12 1.9272281e-06 -7.911943e-07 -9.989689e-10 -1.0175883e-06
1.3585407e-06 -4.1187864e-10 -1.96913e-06 -1.9167796e-06 1.6959523e-06 5.712863e-10 -4.1705954e-09 -1.288426e-09
2.0374264e-07 4.629629e-05 -1.1739952e-06 4.1906285e-05 -5.1789564e-05 -6.545713e-05 -4.323303e-06 -8.0897e-05
-4.0128773e-05 7.919603e-06 -7.857708e-05 -9.582967e-05 -0.0001230966 -1.75254e-07 7.8974034e-07 8.8716545e-10
3.1983683e-07 0.00010527465 2.66646e-06 0.000106936124 -0.00013193284 -0.00015362391 -1.0935132e-05 -0.00020224352
-9.848453e-05 2.1615e-05 -0.00019715932 -0.00022870422 -0.00029452142 -2.0545184e-07 2.0401023e-06 3.9374e-09
-2.4952172e-07 -9.313839e-05 2.4275116e-06 4.288314e-09 1.6352546e-07 -5.0364873e-05 0.00011330526 1.757676e-05
5.5899723e-06 2.6411296e-06 7.856755e-06 -0.00011042876 -0.00011375829 1.7793198e-07 4.901958e-06 -2.2780193e-09
-1.9587172e-07 -5.95494e-05 7.290039e-07 -3.6592651e-09 -2.8456625e-06 -3.581159e-05 7.318625e-05 9.6401345e-06
2.3010234e-06 1.7806578e-06 4.8448187e-06 -6.919419e-05 -7.489458e-05 1.8403748e-07 3.176434e-06 -9.2803704e-10
-2.198593e-07 -6.73953e-05 -1.0821847e-06 3.943364e-07 -7.7135627e-07 -4.0323317e-05 8.5644075e-05 1.0674961e-05
5.2626924e-06 2.025278e-06 5.1265974e-06 -8.35107e-05 -8.5866464e-05 2.5805977e-07 3.7328434e-06 -9.3012195e-11
2.8310612e-07 7.286907e-05 -1.2575634e-06 7.1756134e-05 -8.6701955e-05 -0.00010379526 -7.422096e-06 -0.0001371434
-7.031133e-05 1.4367009e-05 -0.00013771969 -0.00015773873 -0.00020120286 -1.5245604e-07 1.4191913e-06 5.3936616e-10
-1.8735347e-09 -2.556193e-07 5.0849065e-11 9.1174525e-12 6.5357754e-11 -1.7074571e-07 -1.4829005e-09 -9.6037144e-11
-2.3615776e-10 1.9967699e-09 4.5302923e-10 -2.926103e-07 -2.3041073e-07 -6.1957814e-11 2.522037e-11 -1.9689925e-09
1.6814491e-07 3.308765e-05 1.5239234e-06 3.1770993e-05 -4.2279094e-05 -4.907668e-05 -3.3639242e-06 -6.192772e-05
-2.8620632e-05 5.884035e-06 -6.516051e-05 -7.235112e-05 -9.302277e-05 -1.0722586e-07 6.33329e-07 -1.524527e-09
-2.4361123e-07 -5.1835188e-05 -4.1169642e-07 -5.2281877e-05 6.2687104e-05 8.214765e-05 5.2695796e-06 0.000102051235
4.86671e-05 -9.907855e-06 9.799635e-05 0.00012049878 0.0001529781 2.6361107e-07 -9.709372e-07 -7.271502e-10
-2.477391e-07 -8.182552e-05 -1.6490354e-06 2.8021861e-06 -8.838455e-06 -7.022121e-05 9.717278e-05 1.9678623e-06
2.819136e-06 8.075717e-06 -5.543719e-06 -0.00012653238 -0.00014165087 2.134858e-07 -4.174943e-06 -1.1041922e-10
-3.049773e-07 -9.362121e-05 5.01291e-07 -9.498537e-05 0.00011752339 0.00014228778 9.513501e-06 0.00018130853
8.90283e-05 -1.8734961e-05 0.00017919895 0.00020857401 0.00026752494 1.9145835e-07 -1.7746248e-06 -4.080375e-09
-3.164891e-07 -9.072897e-05 1.2030802e-06 -8.970909e-05 0.00010875356 0.00013328892 9.021222e-06 0.00016943738
8.580137e-05 -1.7660297e-05 0.00016784357 0.0001984566 0.00025104388 2.6517202e-07 -1.6798988e-06 -5.636049e-09
2.084541e-09 1.8776126e-06 1.9273077e-06 -5.5045685e-10 -6.1997046e-11 -2.9792475e-06 1.13792344e-10 1.9991555e-09
-2.5703318e-06 -1.5107027e-10 8.7679614e-10 -9.2496214e-07 -2.0678249e-06 1.6969948e-09 1.334434e-09 -5.2161164e-10
-4.0808876e-09 -4.935039e-07 -2.5761317e-06 -7.505168e-05 -0.00012435645 -8.835681e-05 -2.9616402e-05 -0.00020432787
-0.00010163323 -1.687192e-05 -0.00019357952 -9.5924814e-05 -0.0001494659 3.7214447e-09 -1.3171764e-05 5.9152807e-09
3.036737e-07 8.626727e-05 -1.6782119e-06 8.6898806e-05 -0.00010874211 -0.00012430351 -8.95064e-06 -0.00016658564
-7.965712e-05 1.748246e-05 -0.0001614761 -0.00018934821 -0.00024139164 -1.8357183e-07 1.6605186e-06 -6.548482e-09

exp_avg_sq f4 [16, 16]
00000000: f849 e328 6708 5d2e c7e2 be32 3306 a622
00000010: 9df6 fd34 ab52 b836 e106 ce28 525d ad36
00000020: 693d 9d35 f51b 0329 3232 0336 8e37 2737
00000030: cfef bd37 429d 3d28 f0c1 e329 7f13 bb29
00000040: c6d1 972a 6c61 e639 ff42 bf34 53c3 dd34
00000050: 7916 2e38 bd55 1139 d76e 1731 29f7 9e39
00000060: 19b6 7938 043b 0431 bf7c 6439 0e09 363a
00000070: 30f6 863a 424f 0e2c 2c90 882a a03f 5a29
00000080: 65e5 e52b 10fb a739 7c7d 2233 1474 2036
00000090: 2008 3239 3c27 5a39 d720 5e32 a212 993a
000000a0: 8811 6b39 09db 4432 8669 693a a507 d739
000000b0: 361b 2f3a a3cf 362d 2ece c82b f701 a028
000000c0: 10c3 302b 42de d139 ba13 0533 2075 4a28
000000d0: 746e 5a37 8f74 8738 f591 8a31 7167 3739
000000e0: 3f02 d837 a940 5f2c 37f4 0639 5e24 323a
000000f0: 069f 3e3a 4b69 ca2c fe97 622c 4471 c829
00000100: 7b99 a42a e0c0 c438 c8ec 9431 9fa2 4127
00000110: 7117 4a37 5d61 b737 194c e630 5938 e838
00000120: eda6 a637 d750 be2b 5f91 b438 98cb 1039
00000130: 3295 1b39 71ac 232c 7690 bc2b ab70 b528
00000140: 6eea b62a 56b7 5639 79eb 0333 59b3 9d2b
00000150: 89aa 8937 0ce5 0c38 14e1 1d31 aaf4 3739
00000160: 0b7e fa37 69c6 012c 9906 0c39 2507 9c39
00000170: 8280 a739 f31f 6f2c 2445 002c 9cb5 8127
00000180: 03f9 512b 3dc6 4c39 4d21 3c32 614c 9235
00000190: 39df a738 bd1c 9338 0d03 d331 cf53 023a
000001a0: 889b cd38 c223 b831 0801 ca39 a3c5 5b39
000001b0: d25b 9539 93d4 152c 3cbb 5a2b 5776 b529
000001c0: 101b 8529 202a dd2c e5ed b425 6958 2026
000001d0: 702b 9027 3257 442c 2d9e 8f29 a04e 9129
000001e0: c8a9 e227 9919 5729 9203 5128 9b20 622d
000001f0: 2ccb 822d 5c78 f825 5589 3b25 36b2 5429
00000200: 5836 8d2a ef20 1a3a b1cc b834 e9ca 7a34
00000210: 1844 c037 0a5f 0238 f31a ba30 9f27 7239
00000220: c287 1c38 e1ab a130 cb38 2b39 9049 443a
00000230: 8a64 693a 5637 922b 4116 3d2a 1105 ac26
00000240: a352 f02a 63c8 5e39 279e 1633 5652 3535
00000250: 7b30 3338 a43a e837 20a3 5c31 fe20 8939
00000260: 2394 5738 fe01 4c31 2178 5539 f76b 8a39
00000270: c7c4 9539 6cad 532c 6fe4 c62a 4472 8a28
00000280: 85fd 002b 33c5 0b39 01ef e630 bf6c 162b
00000290: ac9f 1537 9dfe 4f38 200a 9c31 59d6 9b38
000002a0: 6d1d 5737 1614 862d 62d7 7938 c98b 9f39
000002b0: 4e9a b339 6342 872c 4df7 0e2c 84bf 0728
000002c0: faa4 c12b 160f ad3a 09a2 e334 61a8 0e36
000002d0: 6fc9 1b39 594a f638 0db4 2a32 677a 8e3a
000002e0: 8d08 5339 031a 1f32 dabe 573a 30f9 dd3a
000002f0: 4567 f73a 0e99 262d 37e3 992b ab23 a528
00000300: efa0 a82b 0c9b 8b3a 13b9 ad34 b460 0036
00000310: 33a7 0f39 8635 d738 2ddf 1832 77be 773a
00000320: 7a92 3a39 4fc9 0d32 f4f1 3c3a 8cb9 b13a
00000330: ad04 c63a 92b3 192d caae 8a2b f7c4 d028
00000340: 4e53 6229 93f3 1539 9cca a234 4996 4728
00000350: a70a 0926 9045 8536 38e8 a026 b3a9 c429
00000360: 88ae af33 51fa e726 3f2a 2729 b014 1439
00000370: 43fd 6139 4196 c029 27cb 9229 111a 1d29
00000380: e578 4229 8d63 c430 facf e232 864b ee34
00000390: 3645 4136 6660 5237 12a7 3a31 0543 8c37
000003a0: 6685 5536 6dc7 9a31 b456 2137 037f af37
000003b0: 37cd 4038 63db dc29 3637 162d ed3f ea29
000003c0: 1658 972b c8fa 4a39 feb8 0f32 e244 d435
000003d0: 6c1d e838 fe07 0239 cbed 1532 b6f3 3b3a
000003e0: a645 1239 fef0 0332 e0cc 103a 6ee1 8e39
000003f0: 866a da39 996f 522c 95b4 872b 2dbf 0528
2.5234141e-14 5.0257045e-11 2.2222038e-08 4.5000954e-18 4.7304357e-07 5.493251e-06 2.2873578e-14 5.1666657e-06
1.1715284e-06 2.9112092e-14 1.9549739e-06 9.9669105e-06 2.2642225e-05 1.05257074e-14 1.0114468e-13 8.30785e-14
2.6968548e-13 0.00043941604 3.5625268e-07 4.1306575e-07 4.1505762e-05 0.00013860218 2.2036397e-09 0.00030320257
5.9535818e-05 1.9242075e-09 0.00021790246 0.0006944098 0.0010296758 2.022341e-12 2.4258492e-13 4.846091e-14
1.6335098e-12 0.00032039778 3.783269e-08 2.3909424e-06 0.0001697843 0.00020804716 1.2929568e-08 0.0011678527
0.00022417877 1.1458504e-08 0.0008903969 0.0004101369 0.0006679775 1.0391607e-11 1.4268081e-12 1.776442e-14
6.2798464e-13 0.0004002918 3.0984417e-08 1.123865e-14 1.3019529e-05 6.4590124e-05 4.032922e-09 0.00017490775
2.5750252e-05 3.17261e-12 0.00012870213 0.000679558 0.0007271621 5.752875e-12 3.2200904e-12 8.9014327e-14
2.923875e-13 9.381934e-05 4.334286e-09 2.6872288e-15 1.2045596e-05 2.1860638e-05 1.6756331e-09 0.00011073118
1.9866473e-05 1.352275e-12 8.610146e-05 0.00013808755 0.00014837531 2.3259417e-12 1.3398299e-12 2.0143899e-14
3.2492363e-13 0.00020476928 3.0714975e-08 1.12053e-12 1.6411084e-05 3.3591918e-05 2.297445e-09 0.00017543384
2.9861016e-05 1.8442142e-12 0.00013353898 0.00029759962 0.00031948468 3.3981678e-12 1.8228275e-12 3.6001594e-15
7.459729e-13 0.00019528806 1.0950612e-08 1.0900077e-06 8.004759e-05 7.014859e-05 6.141255e-09 0.0004971595
9.804132e-05 5.35917e-09 0.0003852921 0.00020959093 0.00028487906 2.1292176e-12 7.7709e-13 8.0585434e-14
5.911081e-14 6.2858746e-12 3.1386226e-16 5.563097e-16 4.0015124e-15 2.7901678e-12 6.377915e-14 6.452933e-14
6.291168e-15 4.7761792e-14 1.1602605e-14 1.28538525e-11 1.4869515e-11 4.31027e-16 1.6266194e-16 4.722803e-14
2.508434e-13 0.0005879541 3.4421603e-07 2.3356883e-07 2.2919892e-05 3.1082927e-05 1.3540941e-09 0.00023093678
3.7319733e-05 1.1763143e-09 0.00016328988 0.00074877683 0.0008903226 1.0389283e-12 1.6794293e-13 1.1936271e-15
4.2689905e-13 0.0002124622 3.5068435e-08 6.754757e-07 4.2722077e-05 2.7683862e-05 3.210694e-09 0.00026155257
5.1397958e-05 2.968704e-09 0.00020358014 0.0002640185 0.00028566105 3.0081172e-12 3.5330373e-13 1.5370633e-14
4.5826564e-13 0.00013329535 1.6802632e-09 5.344162e-13 8.918269e-06 4.9589773e-05 4.5413486e-09 7.430901e-05
1.282185e-05 1.5242956e-11 5.9566817e-05 0.0003043099 0.00034256506 3.844301e-12 2.0316693e-12 7.535534e-15
1.3759265e-12 0.0013203348 4.239994e-07 2.1257658e-06 0.00014856992 0.000117440424 9.936241e-09 0.0010870219
0.00020125713 9.2609325e-09 0.0008230038 0.0016935226 0.0018875381 9.4699925e-12 1.0934369e-12 1.8334148e-14
1.1981786e-12 0.0010651066 3.235842e-07 1.9129775e-06 0.0001369983 0.000102619684 8.898309e-09 0.0009450684
0.00017792909 8.2530525e-09 0.00072076847 0.0013559326 0.0015107595 8.736916e-12 9.854003e-13 2.3178059e-14
5.0254336e-14 0.00014300486 3.032227e-07 1.1079307e-14 4.754586e-16 3.971807e-06 1.1165173e-15 8.7335866e-14
8.1808196e-08 1.6096693e-15 3.711809e-14 0.00014122087 0.0002155202 8.552578e-14 6.518944e-14 3.4883612e-14
4.3181513e-14 1.4289171e-09 2.640444e-08 4.4385905e-07 2.8799527e-06 1.253942e-05 2.716153e-09 1.6720509e-05
3.1817121e-06 4.504662e-09 9.616535e-06 2.092077e-05 4.596749e-05 9.80802e-14 8.538772e-12 1.0402777e-13
1.0753644e-12 0.00019357644 8.365758e-09 1.5815278e-06 0.00011068102 0.00012400743 8.727009e-09 0.00071697996
0.00013949591 7.679999e-09 0.0005523693 0.0002725231 0.00041659566 2.9904744e-12 9.642449e-13 7.424438e-15

exp_avg f4 [16]
00000000: 9bf5 74b5 2ed3 acb8 5f72 57b9 539b a5b8
00000010: 84c1 51b8 c84b 7bb8 1601 15b9 14f6 27b4
00000020: 4eaa 85b8 8b22 e138 b29e cfb8 9dc7 4139
00000030: c913 3739 369e a234 9984 d8b8 8c34 30b9
-9.1254486e-07 -8.2409344e-05 -0.00020546604 -7.8967445e-05 -5.000971e-05 -5.991364e-05 -0.00014210152 -1.564261e-07
-6.373656e-05 0.0001073527 -9.9000885e-05 0.00018480276 0.0001745961 3.0289965e-07 -0.00010324381 -0.00016804243

exp_avg_sq f4 [16]
00000000: 78a8 af37 fe08 073b 3859 363a f0f0 ac3a
00000010: d1f2 6039 ec45 183a 7c72 c839 ad84 0c2d
00000020: 7cc0 1b3b f42c 1d3a 4804 d939 40cb 933b
00000030: db64 683b 9c20 1d3a 5c76 1738 6c0c d739
2.0940075e-05 0.0020604725 0.00069560437 0.0013194364 0.00021452761 0.0005808759 0.0003823227 7.987539e-12
0.0023765853 0.0005995773 0.00041392655 0.0045103133 0.0035460505 0.0005993934 3.6111436e-05 0.0004101725

exp_avg f4 [1, 16]
00000000: 1f66 b135 c43a e239 17f7 313a b35b 41b9
00000010: 1dd7 3db9 c593 96b9 fcf4 fe39 6a94 8033
00000020: e910 193a 7a3b 1b39 6fe4 3ab9 0d96 9439
00000030: 8170 8e38 2e5b 08b6 6f31 1db9 2ea5 173a
1.3217249e-06 0.00043149863 0.00067888334 -0.00018440075 -0.0001810458 -0.00028720326 0.00048629183 5.987461e-08
0.00058390066 0.00014804109 -0.0001782344 0.00028340556 6.792043e-05 -2.0318653e-06 -0.00014991102 0.00057848066

exp_avg_sq f4 [1, 16]
00000000: 3924 7a35 8ebc 243b 72f7 8f3b f637 1e3b
00000010: c9ae 8e3b 07bf 473c 8116 c73a f528 1f2b
00000020: 14d9 153c ea3e cc3c bfb2 533a 1a8e 5f3b
00000030: e73f ef3a 308c e937 3b25 b136 ac97 303b
9.318497e-07 0.0025136801 0.0043935115 0.0024142242 0.004354332 0.012191541 0.0015189202 5.6544987e-13
0.009145994 0.024932344 0.00080756465 0.0034111799 0.0018253297 2.7841044e-05 5.2793453e-06 0.0026945872
