water/29t8813n/checkpoints/epoch=4999-step=4999.ckpt (torch, 10473 bytes, 16 tensors)

layers.0.weight f4 [16, 3]
0	0x3f62b338	0.88554716
1	0xbf79e7e0	-0.9761944
2	0xbf10f9f9	-0.5663143
3	0xbdbfa520	-0.09357667
4	0x3f9a8301	1.2071229
5	0x3f81890c	1.0119948
6	0x3f0a8a5f	0.5411739
7	0xbf0e66d4	-0.55625653
8	0xbf85118e	-1.0395982
9	0xbf8999d0	-1.0750065
10	0xbf6a932b	-0.9163081
11	0xbe1ab71d	-0.15108915
12	0xbd401cc0	-0.046902418
13	0x3d0776af	0.03307217
14	0x3fb1f406	1.3902595
15	0xbf37bb60	-0.71770287
16	0x3f5de724	0.8668082
17	0x3cca3560	0.024683654
18	0x3f13e302	0.5776826
19	0xbf1192fd	-0.5686491
20	0x3f195848	0.5990033
21	0x3eaf0e84	0.34190762
22	0xbfc367f8	-1.5266104
23	0x3eb82f22	0.3597346
24	0xbec59dc3	-0.38596925
25	0xbf5c44ea	-0.86042655
26	0x3faed6e4	1.365933
27	0x3e86eeab	0.26353964
28	0xbe42cd9d	-0.19023748
29	0x3eb14dda	0.3462971
30	0xbe6c7a8b	-0.23093621
31	0x3f09668d	0.53672105
32	0xbf874149	-1.0566798
33	0x3e67af8a	0.22625557
34	0x3f1a2dfd	0.6022642
35	0xbf37034e	-0.7148942
36	0x3fba2ba3	1.4544567
37	0xbebae753	-0.3650461
38	0x3e88be96	0.26707906
39	0xbf022148	-0.50832033
40	0x3e5a7e9e	0.21337363
41	0x3ec11d26	0.3771755
42	0x3e4fdbfe	0.20298764
43	0x3f563271	0.8367072
44	0x3e110ee6	0.1416584
45	0xbeb9b05c	-0.36267364
46	0x3e21e0ca	0.15808406
47	0x3f63bb37	0.8895754

layers.0.bias f4 [16]
0	0x3f8a2645	1.0792929
1	0x3ebe8c33	0.3721634
2	0xbebc0854	-0.36725104
3	0x3dc04996	0.093890354
4	0xbee01167	-0.43763277
5	0x3f17a1e8	0.59231424
6	0xbee05492	-0.43814522
7	0xbe0faf0e	-0.14031622
8	0x3ed74e52	0.4205194
9	0x3f82ec0f	1.0228289
10	0xbf5f79d7	-0.8729529
11	0x3f7ff5a3	0.99984187
12	0xbdc9cd35	-0.09853593
13	0xbd8cc3ca	-0.06873281
14	0xbf1a0401	-0.6016236
15	0x3f04d641	0.51889426

layers.2.weight f4 [16, 16]
0	0x3789f26d	1.6444561e-05
1	0x8f08f953	-6.753336e-30
2	0x811c6d4c	-2.8731091e-38
3	0x3c876b74	0.01653073
4	0xac223715	-2.3052161e-12
5	0x01d30808	7.7520683e-38
6	0xa5297b96	-1.4700286e-16
7	0xb0b9212d	-1.3469951e-09
8	0x39ad97e7	0.00033110307
9	0xbb45c4b8	-0.0030177068
10	0x3d10df9b	0.035369497
11	0xbcaa1e9a	-0.020766545
12	0xb0918b4b	-1.0589728e-09
13	0x8051c6e3	-7.510022e-39
14	0xb62144f8	-2.4031015e-06
15	0xb811d471	-3.4768545e-05
16	0xa5efc0f5	-4.1590644e-16
17	0xb9ebcada	-0.0004497383
18	0x020a71ec	1.0171333e-37
19	0xa8012e4e	-7.170979e-15
20	0xb4772247	-2.3016138e-07
21	0x803f7a13	-5.829428e-39
22	0x807cf3ac	-1.1475015e-38
23	0x00173aa5	2.133254e-39
24	0xb0b9d746	-1.3521706e-09
25	0xb7545830	-1.2656717e-05
26	0x8009052c	-8.28375e-40
27	0xb42926b8	-1.5753437e-07
28	0xb38453ef	-6.1619964e-08
29	0x01a703ce	6.135157e-38
30	0x0010deb7	1.549263e-39
31	0xb9085570	-0.00013001799
32	0x3b3ead82	0.0029095118
33	0xbe2bb946	-0.16769895
34	0x007c3240	1.1405628e-38
35	0xbd123f62	-0.035704978
36	0x3dcf3282	0.101170555
37	0x34ba320a	3.4681608e-07
38	0x3a67b9d4	0.0008839641
39	0x399d2e5d	0.00029979917
40	0xb7ccf74e	-2.4433855e-05
41	0x3d030743	0.031989347
42	0x008ef388	1.3128003e-38
43	0xbe0bcbb8	-0.13651931
44	0xbd4e1cb2	-0.050320335
45	0x0021851c	3.078322e-39
46	0xba38496d	-0.0007029984
47	0x3d81ff23	0.063474916
48	0x3f330580	0.6993027
49	0x3edf31f2	0.43592793
50	0xbf35c9be	-0.7101096
51	0xbd67b805	-0.05657198
52	0x3f2249fb	0.63394135
53	0xbf2f17f7	-0.6839594
54	0xbf8f7334	-1.1207032
55	0x3e7ef779	0.24899091
56	0x3f52c06d	0.8232487
57	0x3e613790	0.21993852
58	0xbf798003	-0.97460955
59	0x3e13ddf6	0.1444014
60	0x3f516068	0.8178773
61	0xbf83c83d	-1.0295483
62	0x3ec1a2de	0.3781957
63	0xbd682b99	-0.056682203
64	0xbd76fe19	-0.06030092
65	0x37312cd2	1.0560458e-05
66	0xbd24e0e1	-0.040253524
67	0x3e2af2e1	0.16694213
68	0x809b321e	-1.425248e-38
69	0x3e0db48e	0.13838407
70	0x8018cf80	-2.278489e-39
71	0x8003762b	-3.17897e-40
72	0xc090cb38	-4.524807
73	0xbdf63989	-0.12022693
74	0xbf0c710b	-0.5485999
75	0x3e09248d	0.1339285
76	0x3e21a11b	0.15784113
77	0x3d0753a5	0.033038754
78	0x8045926f	-6.38918e-39
79	0xc01f89d4	-2.4927874
80	0x3f4985bd	0.78719693
81	0xbf480dc9	-0.78146034
82	0x3e1dcc4d	0.15409966
83	0x3dcf94c5	0.101357974
84	0xbf9b6a3a	-1.2141793
85	0xbf190b19	-0.5978256
86	0x3f173dac	0.5907848
87	0x3f069b02	0.52580273
88	0x3d9df0ac	0.0771192
89	0x3db58644	0.088635
90	0x3f2c04e9	0.6719499
91	0xbf53eb23	-0.82780665
92	0x3ea50efc	0.32237995
93	0xba87954d	-0.0010344178
94	0x3d430bf8	0.047618836
95	0xbf527efc	-0.8222501
96	0x3e6e774b	0.23287694
97	0xbf04dd0c	-0.5189979
98	0x3e650d0d	0.2236826
99	0x3d27db2e	0.04098051
100	0xbfb78b35	-1.4339358
101	0xbf2fa568	-0.68611765
102	0xbf49ff63	-0.78905314
103	0xbee1eeae	-0.4412741
104	0x3f5dfe4a	0.8671614
105	0x3e5b7ce5	0.21434362
106	0x3fb5615e	1.4170339
107	0xbec1cdc2	-0.37852293
108	0x3e2a111c	0.16608089
109	0x4015bf00	2.3397827
110	0x3ce7dfb7	0.028304918
111	0x3e891ff8	0.26782203
112	0x3f506f40	0.81419754
113	0x3eec773e	0.46184725
114	0xbf5355a4	-0.8255255
115	0xbd556752	-0.052100487
116	0x3f062423	0.5239889
117	0xbf374457	-0.71588653
118	0xbf5d99af	-0.8656263
119	0x3e8e1280	0.2774849
120	0x3f1a146b	0.60187405
121	0x3e1caa74	0.15299398
122	0xbf831ac2	-1.0242541
123	0x3e323a12	0.17404965
124	0x3f4c1dde	0.79733074
125	0xbf834f31	-1.0258542
126	0x3dbb94f4	0.0915927
127	0x3e1b8247	0.15186416
128	0x3f515193	0.817651
129	0xbf4a7738	-0.79088163
130	0xbe25ea8e	-0.16202757
131	0x3e9e0079	0.30859736
132	0xbf5c676e	-0.8609532
133	0xbf36e667	-0.71445316
134	0x3ee56adb	0.44808087
135	0x3ee8ad44	0.4544469
136	0x3e9736cc	0.29533994
137	0x3e0f26b0	0.13979602
138	0xbd910317	-0.070806675
139	0xbf1b6149	-0.6069532
140	0x3aeb4819	0.0017950564
141	0xbfb88f24	-1.4418683
142	0x3e02fa7f	0.12790869
143	0xbf634ee8	-0.88792276
144	0x3e9c84ca	0.3057006
145	0x3dbcb730	0.09214628
146	0x3e65ce08	0.22441876
147	0xbf6e1115	-0.92994815
148	0x3f5fe4df	0.87458605
149	0xbeaed6f6	-0.34148377
150	0xc007d446	-2.1223311
151	0xbec1ccbc	-0.37851512
152	0xbe8b021a	-0.2715004
153	0x3df58902	0.11989023
154	0xbc89a454	-0.01680199
155	0xbd8d62f0	-0.069036365
156	0x3f106f2e	0.56419647
157	0xbf9dd258	-1.2329817
158	0x3eb6af77	0.35680744
159	0xbe7fa919	-0.2496685
160	0x3ddf1bb7	0.10893958
161	0xbd7d4b5c	-0.061839446
162	0x3f00048e	0.5000695
163	0xbe12ad7d	-0.14323993
164	0xbeaa9f7e	-0.33324808
165	0x3d1e614f	0.03866702
166	0x3ed574b0	0.41690588
167	0xbe9fa989	-0.31184033
168	0x3edbb84f	0.42914054
169	0x3e60ac20	0.2194066
170	0xb6dc0b9e	-6.5578633e-06
171	0xbf25d16f	-0.64772695
172	0x3e9c8b60	0.30575085
173	0x4014d62f	2.3255727
174	0xbdb9d0cc	-0.09073028
175	0xbce6dd87	-0.028181804
176	0xbee920e2	-0.455329
177	0x3d747d6c	0.059689924
178	0x3f4365b2	0.7632705
179	0xbf2fdc10	-0.68695164
180	0x3d970262	0.07373501
181	0x3ee85309	0.4537585
182	0x401577b6	2.3354316
183	0xbec87c33	-0.39157256
184	0xbf8bf5b5	-1.0934359
185	0x3f4c01c5	0.796902
186	0x3d9e7767	0.07737618
187	0xbe5c880e	-0.21536276
188	0x3e848713	0.25884303
189	0x3f9b8bf4	1.2152085
190	0xbf7cfd37	-0.98823875
191	0xbded235a	-0.115790084
192	0xbb2cdaf0	-0.0026375614
193	0xb9970f8e	-0.00028812554
194	0x895bc6b2	-2.6454592e-33
195	0x3af9b231	0.0019050298
196	0xb7de3ad7	-2.6491862e-05
197	0x8082f82b	-1.202764e-38
198	0xb4409eb7	-1.7939134e-07
199	0xb6826469	-3.885991e-06
200	0xba89eccd	-0.0010522843
201	0x3c26d478	0.010182492
202	0x00404778	5.90311e-39
203	0xba92bc29	-0.0011194992
204	0xb9a3166a	-0.00031106482
205	0x80040de7	-3.72329e-40
206	0x80583ce1	-8.103363e-39
207	0xba3bff02	-0.0007171483
208	0xbfb628a0	-1.4231148
209	0x3eba8d19	0.36435774
210	0xbefd6f5c	-0.49499023
211	0xbebae4a5	-0.36502567
212	0xbf483484	-0.7820513
213	0x3f5b8c00	0.857605
214	0x4091575b	4.5419135
215	0xbea6f42a	-0.32608157
216	0xc0548503	-3.3206184
217	0x3cbe44f6	0.023226243
218	0x3ee3e84b	0.44513163
219	0x3f6d8de4	0.9279463
220	0xbf74404a	-0.954106
221	0x3f6a0ceb	0.9142596
222	0x3cf2773c	0.029597871
223	0x3cbbd696	0.022929471
224	0x3f71db9b	0.94475716
225	0x3dc324f9	0.09528536
226	0xbf7ea707	-0.99473614
227	0xbeccaa13	-0.39973506
228	0x3f142390	0.57866764
229	0xbecf61f4	-0.4050442
230	0xbf614e06	-0.8800968
231	0x3ed37f28	0.4130795
232	0x3f243360	0.6414089
233	0x3e9d2912	0.30695397
234	0xbf886351	-1.0655309
235	0x3e123a80	0.14280128
236	0x3ed183d3	0.40920886
237	0xbf85ffe2	-1.0468714
238	0xbd3fb6db	-0.046805244
239	0x3d7de0e9	0.06198207
240	0x3f2368d9	0.6383186
241	0xbf11275c	-0.5670068
242	0x3f07cb50	0.53044605
243	0x3e393697	0.1808723
244	0xbe286732	-0.16445616
245	0xbe9e4191	-0.30909398
246	0x3e88e20d	0.26734963
247	0xbf123179	-0.5710674
248	0x3f92a718	1.1457243
249	0x3ed8df4d	0.42357865
250	0x3d480833	0.048835944
251	0xbf8bdc64	-1.0926633
252	0x3da2a464	0.07941511
253	0x404fe76f	3.2485006
254	0x3ea552c4	0.32289708
255	0x3e8beba7	0.27328226

layers.2.bias f4 [16]
0	0xbdd88d51	-0.10573829
1	0xb7d51694	-2.5402092e-05
2	0xbd8884f4	-0.06665984
3	0xbe3fc33d	-0.18726821
4	0xbe53ce5d	-0.2068419
5	0x3e27a802	0.16372684
6	0x3e8d5402	0.27603155
7	0xbe858c1f	-0.26083466
8	0xbde42af4	-0.11141005
9	0xbe84b1be	-0.25916857
10	0x3d30291a	0.043007948
11	0x3f7c30c0	0.98511887
12	0xbd41c2a1	-0.047304753
13	0x3f513bc1	0.817318
14	0xbd6628f3	-0.056191396
15	0xbd4d6b38	-0.05015108

layers.4.weight f4 [1, 16]
0	0x3cfeb567	0.031092359
1	0x910cc3b3	-1.1104357e-28
2	0xbdc215bd	-0.094768025
3	0x3f50e116	0.81593454
4	0xc041d89c	-3.0288458
5	0xbfb247a0	-1.3928108
6	0xbfc661ee	-1.5498636
7	0x3f5e7efc	0.8691251
8	0xbf5c7a0b	-0.8612372
9	0x3f96b950	1.1775303
10	0xbf09dddb	-0.5385415
11	0xc0326046	-2.787126
12	0xbcc71589	-0.024302261
13	0xc0179e29	-2.3690283
14	0x3f492483	0.7857134
15	0xbf93f342	-1.1558611

cel.weight f4 [2]
0	0x3f800000	1.0
1	0x3fe28f5c	1.77

exp_avg f4 [16, 3]
0	0x3c20c3f1	0.009812341
1	0x3b928639	0.004471567
2	0x3beac2dc	0.0071643423
3	0x3a8423d3	0.0010081477
4	0x3a89b81a	0.0010507137
5	0x396a144f	0.00022323545
6	0xba8c139e	-0.0010686999
7	0xbaa7b051	-0.0012793635
8	0xb99ad864	-0.00029534393
9	0x3b185abd	0.0023247444
10	0x39fe6cac	0.00048527622
11	0x3ae669b3	0.0017579108
12	0xba290e19	-0.0006448939
13	0xb7adc234	-2.071364e-05
14	0xbb2c3ff4	-0.0026283236
15	0xbb5f5ee9	-0.003408367
16	0xba3cb8ad	-0.00071991497
17	0xb99b4678	-0.00029616407
18	0xbcbe0bb2	-0.023198936
19	0xbce7d205	-0.028298387
20	0xbc81bb7a	-0.015836466
21	0xba306957	-0.0006729564
22	0x3a76b6df	0.0009411405
23	0x39b6303f	0.0003474969
24	0x3c832f1c	0.016013674
25	0xbc20bc31	-0.009810493
26	0x3bb28dc8	0.0054490305
27	0xba897bcc	-0.0010489165
28	0xba67946d	-0.0008834068
29	0xb9502d2c	-0.00019853254
30	0xbb5895fe	-0.0033048387
31	0xbad9fb95	-0.0016630763
32	0xbb74b02a	-0.0037336447
33	0xbb4a6e0d	-0.003088835
34	0x3ae526b3	0.0017482847
35	0xbad5e97b	-0.0016320193
36	0xbb04949b	-0.0020230177
37	0xb9ef6dd7	-0.0004566747
38	0xbb4f0f74	-0.0031594904
39	0x3b2a6170	0.0025998019
40	0x3ab54479	0.001382961
41	0x3ba2720f	0.0049574445
42	0xbab7cb8c	-0.0014022454
43	0xba3cf416	-0.00072080025
44	0xbb01916a	-0.0019770511
45	0x3bd62389	0.006534998
46	0x3b87724e	0.004133499
47	0x3baffb18	0.005370509

exp_avg_sq f4 [16, 3]
0	0x3b7b535b	0.0038349244
1	0x3a1c3009	0.00059580855
2	0x3b748274	0.0037309201
3	0x3b8137a6	0.0039434014
4	0x39e10fb9	0.00042927059
5	0x3baff177	0.005369361
6	0x3a541da7	0.0008091577
7	0x3a092ee2	0.00052331213
8	0x3a8e61d5	0.0010862896
9	0x3a14cd36	0.0005676331
10	0x393810b4	0.0001755383
11	0x3a1af034	0.0005910427
12	0x3dd9fc1a	0.10643788
13	0x3e051b69	0.12998737
14	0x3df9c82d	0.121963836
15	0x3dcdc028	0.100464165
16	0x3e6dc493	0.23219518
17	0x3dd25e78	0.10271925
18	0x3fc7dca8	1.5614214
19	0x4018c173	2.3868072
20	0x3fea3204	1.8296514
21	0x3b33a593	0.0027411922
22	0x39b4fb52	0.00034519524
23	0x3b47ef0b	0.003050747
24	0x3e19925f	0.14997242
25	0x3e43f1fe	0.19135281
26	0x3e3cbe42	0.18431953
27	0x3cc38526	0.023867201
28	0x3c9c4e64	0.019080348
29	0x3cce1b15	0.025159398
30	0x3b35cf85	0.00277421
31	0x3a399cec	0.0007080573
32	0x3b37bdce	0.0028036716
33	0x3ae6078e	0.0017549859
34	0x3caae604	0.020861633
35	0x3ae3473e	0.0017339957
36	0x3d69a2fb	0.057040196
37	0x3df8b04e	0.121430025
38	0x3d6a6145	0.05722167
39	0x3ec8cf23	0.39220533
40	0x3f52254a	0.8208815
41	0x3ee99b11	0.4562612
42	0x3d5baf00	0.05363369
43	0x3debaf52	0.11508049
44	0x3d6a9db4	0.057279304
45	0x3b7f6ec4	0.0038975934
46	0x3a883fe2	0.0010395015
47	0x3b4fb7d4	0.0031695263

exp_avg f4 [16]
0	0xbb8b1731	-0.004244708
1	0xb9eaa2a2	-0.0004475313
2	0x3ad3638b	0.0016127689
3	0xba857cca	-0.0010184285
4	0xbaee0e5c	-0.0018162238
5	0x3b8554d5	0.0040689507
6	0xbb1b940d	-0.0023739368
7	0xbaa52738	-0.0012600189
8	0xbd199d5b	-0.03750358
9	0x3ad4d81c	0.0016238722
10	0x3b55c464	0.0032618279
11	0xba743e34	-0.00093171303
12	0xba73cad9	-0.0009299941
13	0x3c919afd	0.0177741
14	0xbaa54715	-0.0012609685
15	0xbc0636c5	-0.008191769

exp_avg_sq f4 [16]
0	0x3c4624b1	0.012093709
1	0x3c02dc7e	0.00798714
2	0x3b22fd5e	0.0024870257
3	0x3a2f8a5c	0.00066963374
4	0x3d99f86c	0.07518086
5	0x3d5424b4	0.051792815
6	0x3f482a30	0.78189373
7	0x3bad670d	0.0052918256
8	0x3da2b155	0.0794398
9	0x3d0b3b0f	0.03399187
10	0x3b324e94	0.002720748
11	0x3c785c30	0.015158698
12	0x3cd247cf	0.025669007
13	0x3e6d3805	0.23165901
14	0x3c9950c9	0.01871528
15	0x3b8d21a6	0.0043069897

exp_avg f4 [16, 16]
0	0x2f3ed2d8	1.7355306e-10
1	0x8774ee2e	-1.8426515e-34
2	0x00000029	5.7e-44
3	0x3431e569	1.6567868e-07
4	0xa3fbde3a	-2.7307591e-17
5	0x00000048	1.01e-43
6	0x9d0cb8af	-1.8624325e-21
7	0xa8876622	-1.5032304e-14
8	0x316bbd31	3.4304544e-09
9	0xb304b05c	-3.0894043e-08
10	0x34bf6b29	3.5654492e-07
11	0xb45f9591	-2.0822905e-07
12	0xa854aaae	-1.1805374e-14
13	0x8000002d	-6.3e-44
14	0xade2b07d	-2.5771602e-11
15	0xafc746c3	-3.6248168e-10
16	0x9dc27bc6	-5.147935e-21
17	0xb19e77f0	-4.6120405e-09
18	0x80000013	-2.7e-44
19	0x9fcd4b96	-8.6945924e-20
20	0xac2e45fe	-2.476574e-12
21	0x8000002c	-6.2e-44
22	0x80000054	-1.18e-43
23	0x00000018	3.4e-44
24	0xa887e1cf	-1.508594e-14
25	0xaf10d851	-1.3173575e-10
26	0x80000005	-7e-45
27	0xabed5a6d	-1.6864961e-12
28	0xab3c0dd1	-6.681019e-13
29	0x00000046	9.8e-44
30	0x00000005	7e-45
31	0xb0b91804	-1.3467347e-09
32	0x32faab34	2.9181685e-08
33	0xb5e12c1b	-1.6776643e-06
34	0x0000004b	1.05e-43
35	0xb4c058b8	-3.5827338e-07
36	0x3587e77f	1.0125658e-06
37	0x2c83e83a	3.7490263e-12
38	0x321c5d36	9.101589e-09
39	0x31557e56	3.1067393e-09
40	0xaf8d6bd4	-2.5724367e-10
41	0x34abd0cc	3.2003152e-07
42	0x00000055	1.19e-43
43	0xb5b77429	-1.366837e-06
44	0xb50759e4	-5.0422227e-07
45	0x00000018	3.4e-44
46	0xb1f6e0f9	-7.1851187e-09
47	0x352a7e56	6.351378e-07
48	0xbae06a54	-0.0017121532
49	0xba1cee4d	-0.00059864373
50	0xb930750a	-0.00016828268
51	0xbac26e06	-0.0014833815
52	0xba120911	-0.0005570809
53	0xba059aa1	-0.0005096589
54	0xb8806d75	-6.1239036e-05
55	0xba3f2829	-0.0007292056
56	0xba6eb1bd	-0.00091054646
57	0xbaceaf1a	-0.0015768737
58	0xb58da71f	-1.0553957e-06
59	0xba6f86dc	-0.0009137222
60	0xba4f55ce	-0.0007909209
61	0xb805b4b8	-3.187798e-05
62	0xb89f3063	-7.5907235e-05
63	0xba482108	-0.00076343166
64	0x3ba11ed9	0.0049170074
65	0x2ef39251	1.10763516e-10
66	0x3a38fcd0	0.0007056715
67	0x3c00c2f3	0.0078589795
68	0x8000005f	-1.33e-43
69	0x3b7dbc26	0.0038716882
70	0x80000018	-3.4e-44
71	0x00000004	6e-45
72	0x399bed05	0.00029740497
73	0x3b30e28c	0.0026990501
74	0xba08817c	-0.0005207283
75	0x3b93734d	0.004499829
76	0x35d4369c	1.5811124e-06
77	0x3702fa63	7.8069015e-06
78	0x8000002d	-6.3e-44
79	0x3895254a	7.111819e-05
80	0x3b47b2ad	0.003047149
81	0xb8c8483d	-9.5501986e-05
82	0x39ddafa9	0.00042283282
83	0x3aa53aca	0.0012606021
84	0xb93ba735	-0.00017895999
85	0x3a0f9edd	0.00054786896
86	0x38814c44	6.165405e-05
87	0x3a75cbc7	0.00093763735
88	0x3aa32e93	0.0012449793
89	0x3af32fb6	0.0018553648
90	0x3998d4c6	0.00029150228
91	0x3ae07850	0.00171257
92	0x38680681	5.5319168e-05
93	0xb236c18b	-1.0637801e-08
94	0x350085e4	4.787855e-07
95	0x3a23c81d	0.0006247776
96	0x3b333f18	0.002735084
97	0xba597fc9	-0.00082969345
98	0x39cafab1	0.00038715222
99	0x3ae845b8	0.0017720973
100	0xb9620a9e	-0.00021556995
101	0x398fe417	0.00027445026
102	0x3985d075	0.0002552305
103	0x3aa58132	0.0012627004
104	0x3a581910	0.00082434807
105	0x3a99dbbb	0.0011738458
106	0x395ab176	0.0002085621
107	0x3aa06150	0.0012236033
108	0x385d6705	5.278645e-05
109	0x379118b7	1.7296856e-05
110	0x34993fe0	2.8544946e-07
111	0x380f3c3c	3.4149954e-05
112	0xbb0bf679	-0.0021356626
113	0xba27a13a	-0.0006394569
114	0xb9886bfd	-0.000260204
115	0xbb062471	-0.0020468498
116	0xba1c263f	-0.0005956627
117	0xba48ed8e	-0.0007664793
118	0xb8824c13	-6.213053e-05
119	0xba4ba21e	-0.0007767993
120	0xba8034bf	-0.0009781345
121	0xbaeef7bc	-0.001823179
122	0xb73c00c3	-1.1205851e-05
123	0xbaa5a3c9	-0.0012637313
124	0xba5d46bb	-0.00084410206
125	0xb80bcc5e	-3.3330514e-05
126	0xb8b176b1	-8.462126e-05
127	0xba54df50	-0.00081204344
128	0x3b424f36	0.0029649264
129	0x389b052d	7.39194e-05
130	0x39def660	0.00042526703
131	0x3b0546c4	0.002033637
132	0xb814b23f	-3.5451954e-05
133	0x3a776fe9	0.0009438978
134	0x39251769	0.00015744347
135	0x3a2ff45e	0.0006712134
136	0x3a860dda	0.0010227517
137	0x3ae9d17a	0.0017838918
138	0x393e19b4	0.00018129387
139	0x3afaa8b3	0.0019123763
140	0x39b1b1a8	0.00033892435
141	0x36c37246	5.824756e-06
142	0x35ac7e08	1.2851679e-06
143	0x3a0b5bc9	0.0005316106
144	0x3a39de16	0.00070902833
145	0xbaba7fe7	-0.0014228792
146	0x369dd560	4.7038047e-06
147	0x380dbb88	3.379167e-05
148	0xba8b6801	-0.0010635854
149	0x37fa8de4	2.9868395e-05
150	0x38ccd653	9.767399e-05
151	0xb82787f1	-3.9942508e-05
152	0xb9e23959	-0.00043148806
153	0xba16ba33	-0.0005749792
154	0xb435f4ee	-1.6946044e-07
155	0x39d40a96	0.00040443678
156	0xba769222	-0.0009405931
157	0xb7be6924	-2.2698725e-05
158	0xb8fc81eb	-0.000120404955
159	0xba65219b	-0.00087406643
160	0x3a584323	0.000824975
161	0xb93ca0d8	-0.00017988996
162	0x360f0530	2.131168e-06
163	0x394648b3	0.00018909834
164	0xb8716845	-5.7555986e-05
165	0xb81e73a0	-3.777782e-05
166	0x39277d5f	0.00015973065
167	0x39e6520f	0.00043930157
168	0x39bef8b9	0.00036424937
169	0x3a0086e4	0.0004902913
170	0xae9bf3e6	-7.091909e-11
171	0x3983b77a	0.00025122968
172	0x3932baa5	0.00017044933
173	0xb716edf7	-8.996102e-06
174	0xb806150e	-3.19677e-05
175	0x38ced61f	9.8627286e-05
176	0x3a2cc8b5	0.0006591187
177	0x3ac9c737	0.0015394454
178	0x399e4a45	0.00030191444
179	0x3b9d1912	0.0047942484
180	0x3aa55022	0.0012612382
181	0x3a834aa6	0.0010016754
182	0xba8d4d71	-0.0010780526
183	0x3a1471d8	0.0005662716
184	0x3acf5c76	0.0015820402
185	0x3afc230c	0.0019236519
186	0x3a22a44c	0.0006204292
187	0x3a969355	0.0011488
188	0x3a05f79e	0.0005110445
189	0x37dbfb24	2.622378e-05
190	0x399f3f81	0.00030374157
191	0x3b0411f5	0.0020152305
192	0xb2e727cd	-2.6910039e-08
193	0xb150fb6e	-3.0410905e-09
194	0x81a9b3ae	-6.2338623e-38
195	0x32a64cbb	1.9359836e-08
196	0xaf9d4497	-2.860687e-10
197	0x8000005e	-1.32e-43
198	0xac0f3ca1	-2.0355178e-12
199	0xae3a80f3	-4.2406034e-11
200	0xb23c1001	-1.0946679e-08
201	0x33dc8cd7	1.0270167e-07
202	0x00000023	4.9e-44
203	0xb24762f3	-1.1605823e-08
204	0xb1619c95	-3.2830816e-09
205	0x80000004	-6e-45
206	0x80000037	-7.7e-44
207	0xb200870d	-7.481288e-09
208	0x3b91b020	0.0044460446
209	0x3b316fb3	0.0027074635
210	0x3ae4f395	0.0017467613
211	0x3c058b0a	0.008150825
212	0x3afbc9be	0.0019209904
213	0x3b8307f9	0.003998753
214	0xb9f86b55	-0.00047382215
215	0xb65befb7	-3.2773075e-06
216	0x3a65c933	0.0008765638
217	0x3b6c830c	0.0036088852
218	0x3a0b3099	0.0005309671
219	0x3b9d2230	0.0047953352
220	0x3ad9130a	0.001656146
221	0x392f3294	0.00016708142
222	0x39d50bd5	0.0004063534
223	0x3ae1a8e3	0.001721647
224	0xbac99ee5	-0.0015382437
225	0xba17eddc	-0.00057956367
226	0xb91030b9	-0.00013751061
227	0xbaa68ce7	-0.0012706787
228	0xba0cae03	-0.0005366506
229	0xb9d7733a	-0.00041093846
230	0xb86eb464	-5.6911624e-05
231	0xba379699	-0.0007003337
232	0xba65c6f2	-0.0008765302
233	0xbac06cfb	-0.0014680916
234	0x3592e547	1.0944576e-06
235	0xba4c42b5	-0.00077919225
236	0xba489888	-0.00076521235
237	0xb8031161	-3.124902e-05
238	0xb8a1e42d	-7.719579e-05
239	0xba4038ef	-0.00073327025
240	0x3afdfb2d	0.0019377224
241	0xb9cf75bd	-0.0003956984
242	0xb839fd6d	-4.434346e-05
243	0x39ad68bf	0.00033075173
244	0xb8ff9bef	-0.000121883924
245	0xb9187ac9	-0.0001454159
246	0x39aee605	0.00033359244
247	0x3a8800bc	0.0010376195
248	0x3a77e2e6	0.0009456113
249	0x3a9d291a	0.0011990399
250	0xb7aae507	-2.0372228e-05
251	0x3a11129c	0.0005534084
252	0x39c7b821	0.00038093425
253	0xb7298ddd	-1.0106215e-05
254	0xb885c04e	-6.377754e-05
255	0x399ba522	0.00029686937

exp_avg_sq f4 [16, 16]
0	0x2ed7ed19	9.819185e-11
1	0x2c566141	3.0465216e-12
2	0x1f6c5a93	5.0049865e-20
3	0x335320c3	4.9157062e-08
4	0x2d702c9e	1.36523275e-11
5	0x2035ef4c	1.5410473e-19
6	0x2d140c69	8.415582e-12
7	0x2df2eb1e	2.7616628e-11
8	0x2f6d815f	2.1600986e-10
9	0x3002d7f6	4.7600623e-10
10	0x318632a0	3.9056687e-09
11	0x3310ec7e	3.37427e-08
12	0x2df6ff45	2.8080325e-11
13	0x2597d085	2.6335623e-16
14	0x2e86133e	6.0970326e-11
15	0x2f2ea64e	1.5884291e-10
16	0x2d2ae1bf	9.713507e-12
17	0x2fe4b9c6	4.1604958e-10
18	0x21e7862e	1.5688686e-18
19	0x2d45ef25	1.1251254e-11
20	0x2e768621	5.6053055e-11
21	0x27861379	3.7213584e-15
22	0x2ab00b56	3.1271746e-13
23	0x2529d1da	1.4729514e-16
24	0x2df3f2c8	2.7733718e-11
25	0x2f3c7f8f	1.7143818e-10
26	0x2bdae96c	1.5554619e-12
27	0x2e8c5d2f	6.3830156e-11
28	0x2e4e9c73	4.6977932e-11
29	0x21cf27fe	1.4037451e-18
30	0x2b496d8e	7.156158e-13
31	0x2f70c3ac	2.189739e-10
32	0x32f16ffe	2.810702e-08
33	0x35cc0285	1.5199918e-06
34	0x261e87da	5.5001375e-16
35	0x32b649ec	2.1221204e-08
36	0x34b73aed	3.412928e-07
37	0x2e5cffbd	5.024935e-11
38	0x2fabdd74	3.126207e-10
39	0x2f6affe7	2.1373091e-10
40	0x2eeb424f	1.06983415e-10
41	0x35b18185	1.3225223e-06
42	0x25e8f0eb	4.0408837e-16
43	0x3437066c	1.704554e-07
44	0x3381d728	6.046167e-08
45	0x2b00aa29	4.571088e-13
46	0x3016bb31	5.4835697e-10
47	0x3530818b	6.575362e-07
48	0x3b5b2c7f	0.003344327
49	0x3d13e8b0	0.03611058
50	0x36e113da	6.7078336e-06
51	0x3951d063	0.00020009423
52	0x3bd77cb5	0.0065761455
53	0x3b79247c	0.003801613
54	0x39f77f52	0.00047206372
55	0x39f63f5c	0.00046967983
56	0x3b256bbf	0.0025241224
57	0x3c307ea4	0.010772381
58	0x33ee788e	1.11046674e-07
59	0x3bba907f	0.005693495
60	0x3c14c1ea	0.009079436
61	0x38959224	7.1320945e-05
62	0x3b922648	0.00446013
63	0x3bf84088	0.007576052
64	0x3b672048	0.0035267044
65	0x2f0790dd	1.2329644e-10
66	0x39e514be	0.00043693738
67	0x3bdcc873	0.0067377626
68	0x2629ec0f	5.895357e-16
69	0x3ab641c1	0.0013905094
70	0x262de37d	6.0329736e-16
71	0x259e9ad0	2.7513536e-16
72	0x33fd30b0	1.1790087e-07
73	0x39fa5ac7	0.0004775135
74	0x38aed98f	8.33749e-05
75	0x3b5b91e7	0.0033503713
76	0x33b59273	8.455108e-08
77	0x31e9885c	6.7966948e-09
78	0x2ab51862	3.2168978e-13
79	0x332418aa	3.8206657e-08
80	0x3ba6ddc3	0.005092354
81	0x392692cc	0.0001588568
82	0x38b52df7	8.639314e-05
83	0x3a93b2a4	0.0011268449
84	0x392f36de	0.0001670974
85	0x3940fac8	0.0001840397
86	0x39659904	0.00021896145
87	0x3a4d8339	0.0007839683
88	0x3ad8dcbc	0.0016545276
89	0x3b2ae3e5	0.0026075777
90	0x3785975d	1.592532e-05
91	0x3a984d22	0.0011619667
92	0x3a8fd0d3	0.0010972269
93	0x2fba7664	3.3917325e-10
94	0x321109c6	8.442333e-09
95	0x39f58deb	0.0004683578
96	0x3be4ae0b	0.0069787554
97	0x39d58e38	0.00040732487
98	0x3911e255	0.00013912593
99	0x3b1f217d	0.0024281435
100	0x38979fbc	7.229994e-05
101	0x3a335eb8	0.00068424223
102	0x38008aae	3.0646734e-05
103	0x39cbc99f	0.00038869397
104	0x3ae30c45	0.0017322382
105	0x3b7ac904	0.0038266787
106	0x37b4ba07	2.1544298e-05
107	0x3b3db092	0.0028944355
108	0x3a12e816	0.00056040415
109	0x334ffda2	4.842662e-08
110	0x3172b506	3.5318535e-09
111	0x3a500215	0.00079348806
112	0x3b791bf1	0.003801104
113	0x3d284016	0.041076742
114	0x36ff304a	7.605214e-06
115	0x396b9919	0.0002246838
116	0x3bf50779	0.0074776975
117	0x3b8dafbf	0.004323929
118	0x3a0cbdcf	0.000536886
119	0x3a0c0323	0.00053410436
120	0x3b3c357e	0.0028718407
121	0x3c48dbef	0.0122594675
122	0x341267e4	1.3635105e-07
123	0x3bd414df	0.0064722146
124	0x3c292b7f	0.010325312
125	0x38a9f407	8.1040016e-05
126	0x3ba62dd2	0.00507138
127	0x3c0d3a2e	0.008619828
128	0x3b0ccb4d	0.0021483481
129	0x380cb402	3.3546246e-05
130	0x385aef56	5.219815e-05
131	0x3a77c5ca	0.0009451775
132	0x383066b1	4.205731e-05
133	0x39352328	0.00017274602
134	0x3868bae0	5.548715e-05
135	0x39884209	0.0002598914
136	0x3a0fc6d0	0.00054846425
137	0x3a77cca4	0.0009452796
138	0x36e08386	6.6910316e-06
139	0x3a325be0	0.00068038516
140	0x39922f9a	0.00027882756
141	0x326e09d7	1.3855661e-08
142	0x323e622b	1.1081776e-08
143	0x391bde75	0.00014864824
144	0x39e6806b	0.00043964697
145	0x3d693f09	0.05694488
146	0x35295844	6.308585e-07
147	0x357f6b2a	9.5150847e-07
148	0x3c06463c	0.008195456
149	0x3bd0f928	0.006377358
150	0x389d4c8d	7.500602e-05
151	0x35ec541e	1.7607852e-06
152	0x39ff7feb	0.00048732696
153	0x3c0a214d	0.008430791
154	0x316d85f5	3.4564185e-09
155	0x3bf4d72e	0.0074719405
156	0x3c052856	0.008127293
157	0x390dc68a	0.0001352077
158	0x3c096a88	0.008387215
159	0x3c0ed459	0.00871762
160	0x3a94cc30	0.0011352357
161	0x3a2110c6	0.0006144162
162	0x34fb9ef8	4.6868058e-07
163	0x36de1ac9	6.619234e-06
164	0x39971597	0.0002881705
165	0x37aa41fc	2.0296306e-05
166	0x3928fbc5	0.0001611552
167	0x395afa2c	0.00020883296
168	0x3a82af9c	0.0009970549
169	0x3aaf5912	0.0013377985
170	0x2e5ae5b9	4.9771496e-11
171	0x392f79f2	0.00016734729
172	0x3a5d60a8	0.0008444884
173	0x32ddd981	2.5826695e-08
174	0x368aa2bb	4.131665e-06
175	0x3a020c93	0.000496098
176	0x3d13191a	0.03591261
177	0x3ed46068	0.41479802
178	0x39d70aaa	0.0004101594
179	0x3bc0c97c	0.005883394
180	0x3d9aa74b	0.0755144
181	0x3d467845	0.04845454
182	0x3bac62a7	0.0052607837
183	0x3b804c37	0.0039153355
184	0x3cc51beb	0.024061164
185	0x3deafb45	0.11473707
186	0x388ca2c2	6.706036e-05
187	0x3d91188f	0.07084762
188	0x3dce2280	0.10065174
189	0x3a5542a8	0.0008135238
190	0x3d527896	0.05138453
191	0x3da9cc44	0.08290914
192	0x30319d0f	6.461542e-10
193	0x2ed74934	9.7900715e-11
194	0x2bd94a6a	1.5439431e-12
195	0x3088123b	9.900484e-10
196	0x2e627eb1	5.1498975e-11
197	0x2a034864	1.1660253e-13
198	0x2dbfccb3	2.180509e-11
199	0x2e345aa5	4.100777e-11
200	0x2f415f7b	1.7587169e-10
201	0x316b86cd	3.4273626e-09
202	0x220a30d5	1.8728339e-18
203	0x2f65f3aa	2.0913996e-10
204	0x2ed79278	9.803086e-11
205	0x271b5870	2.1558513e-15
206	0x2ad34e29	3.7535364e-13
207	0x2f29e188	1.5450585e-10
208	0x3b20b17a	0.0024519847
209	0x3e42622c	0.18982762
210	0x39861272	0.00025572215
211	0x3b7be8a7	0.0038438232
212	0x3cd29b11	0.025708707
213	0x3ce11468	0.02747555
214	0x3897aebe	7.232789e-05
215	0x32286d48	9.803735e-09
216	0x3897961e	7.2282026e-05
217	0x3cada2ba	0.021195758
218	0x38462b70	4.7247333e-05
219	0x3cff5613	0.031168973
220	0x3cba2812	0.022724185
221	0x3a0c9341	0.0005362519
222	0x3d07b945	0.03313567
223	0x3cc2891f	0.023747025
224	0x3b4b9b86	0.003106804
225	0x3d095b4b	0.03353433
226	0x36d4c44d	6.3409448e-06
227	0x3943b6b9	0.00018664719
228	0x3bc7fcb5	0.006103123
229	0x3b6787d5	0.0035328765
230	0x39e5ca52	0.00043829024
231	0x39e49680	0.0004359968
232	0x3b19af32	0.0023450372
233	0x3c240c96	0.010012766
234	0x33e90618	1.08510164e-07
235	0x3bad3922	0.005286352
236	0x3c0a16f5	0.008428325
237	0x388aa80c	6.611654e-05
238	0x3b87a218	0.004139196
239	0x3be69cc2	0.00703773
240	0x3bc6a8f0	0.0060626194
241	0x3b31dac5	0.0027138453
242	0x371911c1	9.123644e-06
243	0x39a17b50	0.00030800188
244	0x3aaceb23	0.0013192635
245	0x393172e5	0.00016922837
246	0x3a434fb6	0.00074505375
247	0x3a7e62eb	0.0009704071
248	0x3b99b5d0	0.004690863
249	0x3bd69d86	0.00654954
250	0x342154b8	1.5025114e-07
251	0x3a8fa5ae	0.001095941
252	0x3b7fc589	0.0039027652
253	0x3417bf70	1.4132615e-07
254	0x37134dc5	8.77999e-06
255	0x3b16caa8	0.0023008976

exp_avg f4 [16]
0	0xb58e1dd9	-1.0588511e-06
1	0xaf910564	-2.6379177e-10
2	0xb532ff59	-6.6681747e-07
3	0xbab9be7a	-0.0014171146
4	0x3b93a855	0.0045061507
5	0x3aff6bbb	0.0019487062
6	0x3abc4c3b	0.001436598
7	0xbae84fcb	-0.0017723975
8	0x3b066faf	0.0020513346
9	0xb880c99e	-6.14107e-05
10	0x39d4c04e	0.0004057907
11	0x3b0803cc	0.0020754216
12	0xb4ff86b7	-4.759547e-07
13	0x3ba027a1	0.0048875366
14	0xbaa6cdc7	-0.0012726121
15	0x3a78dc8a	0.0009493312

exp_avg_sq f4 [16]
0	0x3409b685	1.282552e-07
1	0x2f52a6a9	1.9158598e-10
2	0x3618e055	2.2780343e-06
3	0x3b9c4f96	0.0047702296
4	0x3b14b50f	0.0022690927
5	0x3b025135	0.001988483
6	0x3b7795ae	0.0037778425
7	0x3bb206ba	0.005432931
8	0x3a79b8e7	0.0009526149
9	0x3b6c49cf	0.0036054736
10	0x3a15bad6	0.00057117396
11	0x3d5ed6f5	0.054404218
12	0x31e50d25	6.6662715e-09
13	0x3c446cd6	0.011988839
14	0x3b917a92	0.0044396603
15	0x3b4c448f	0.0031168794

exp_avg f4 [1, 16]
0	0x34a7e42a	3.1272185e-07
1	0x893c78b8	-2.2686439e-33
2	0xb57e8341	-9.4813373e-07
3	0xbb6a28d3	-0.00357299
4	0x38fb6a28	0.00011988386
5	0xbab9f8bb	-0.0014188507
6	0xba9b869c	-0.0011865678
7	0xbb612360	-0.003435336
8	0xbac848ce	-0.0015280487
9	0xba927d8b	-0.0011176331
10	0xb97edc21	-0.00024305332
11	0x3ab37f53	0.0013694562
12	0xb48450e6	-2.4645777e-07
13	0x3b09dd9d	0.0021036633
14	0xbb583b27	-0.0032994242
15	0xbae00e66	-0.0017094135

exp_avg_sq f4 [1, 16]
0	0x32012218	7.51654e-09
1	0x2c6438f9	3.2432375e-12
2	0x35906229	1.0757404e-06
3	0x3dd83460	0.10556865
4	0x3651b72c	3.1250047e-06
5	0x3a358aef	0.0006925305
6	0x3a04220e	0.0005040475
7	0x3dbc7923	0.092027925
8	0x3a2e4fe1	0.0006649476
9	0x3bcd3f55	0.0062636533
10	0x3ac1cc66	0.0014785647
11	0x3c6191a0	0.01376763
12	0x30b26805	1.2980769e-09
13	0x3c5c6dd8	0.013453923
14	0x3d4f3e68	0.050596625
15	0x3bffcc4f	0.007806338
